<?xml version="1.0" ?>
<net name="ResMobNet_v4 (LReLU) with single SSD head" version="11">
	<layers>
		<layer id="24" name="data" type="Parameter" version="opset1">
			<data shape="1,3,320,544" element_type="f32"/>
			<output>
				<port id="0" precision="FP32" names="data">
					<dim>1</dim>
					<dim>3</dim>
					<dim>320</dim>
					<dim>544</dim>
					<rt_info>
						<attribute name="layout" version="0" layout="[N,C,H,W]"/>
					</rt_info>
				</port>
			</output>
		</layer>
		<layer id="0" name="3021302526709" type="Const" version="opset1">
			<data offset="0" size="4" shape="1,1,1,1" element_type="f32"/>
			<output>
				<port id="0" precision="FP32">
					<dim>1</dim>
					<dim>1</dim>
					<dim>1</dim>
					<dim>1</dim>
				</port>
			</output>
		</layer>
		<layer id="1" name="3022302627348" type="Const" version="opset1">
			<data offset="4" size="4" shape="1,1,1,1" element_type="f32"/>
			<output>
				<port id="0" precision="FP32">
					<dim>1</dim>
					<dim>1</dim>
					<dim>1</dim>
					<dim>1</dim>
				</port>
			</output>
		</layer>
		<layer id="2" name="3023302725926" type="Const" version="opset1">
			<data offset="0" size="4" shape="1,1,1,1" element_type="f32"/>
			<output>
				<port id="0" precision="FP32">
					<dim>1</dim>
					<dim>1</dim>
					<dim>1</dim>
					<dim>1</dim>
				</port>
			</output>
		</layer>
		<layer id="3" name="3024302826886" type="Const" version="opset1">
			<data offset="4" size="4" shape="1,1,1,1" element_type="f32"/>
			<output>
				<port id="0" precision="FP32">
					<dim>1</dim>
					<dim>1</dim>
					<dim>1</dim>
					<dim>1</dim>
				</port>
			</output>
		</layer>
		<layer id="4" name="4861486525341" type="Const" version="opset1">
			<data offset="8" size="4" shape="1,1,1,1" element_type="f32"/>
			<output>
				<port id="0" precision="FP32">
					<dim>1</dim>
					<dim>1</dim>
					<dim>1</dim>
					<dim>1</dim>
				</port>
			</output>
		</layer>
		<layer id="5" name="4862486626217" type="Const" version="opset1">
			<data offset="12" size="4" shape="1,1,1,1" element_type="f32"/>
			<output>
				<port id="0" precision="FP32">
					<dim>1</dim>
					<dim>1</dim>
					<dim>1</dim>
					<dim>1</dim>
				</port>
			</output>
		</layer>
		<layer id="6" name="4863486726811" type="Const" version="opset1">
			<data offset="8" size="4" shape="1,1,1,1" element_type="f32"/>
			<output>
				<port id="0" precision="FP32">
					<dim>1</dim>
					<dim>1</dim>
					<dim>1</dim>
					<dim>1</dim>
				</port>
			</output>
		</layer>
		<layer id="7" name="4864486827432" type="Const" version="opset1">
			<data offset="12" size="4" shape="1,1,1,1" element_type="f32"/>
			<output>
				<port id="0" precision="FP32">
					<dim>1</dim>
					<dim>1</dim>
					<dim>1</dim>
					<dim>1</dim>
				</port>
			</output>
		</layer>
		<layer id="8" name="3501350527564" type="Const" version="opset1">
			<data offset="16" size="4" shape="1,1,1,1" element_type="f32"/>
			<output>
				<port id="0" precision="FP32">
					<dim>1</dim>
					<dim>1</dim>
					<dim>1</dim>
					<dim>1</dim>
				</port>
			</output>
		</layer>
		<layer id="9" name="3502350626700" type="Const" version="opset1">
			<data offset="20" size="4" shape="1,1,1,1" element_type="f32"/>
			<output>
				<port id="0" precision="FP32">
					<dim>1</dim>
					<dim>1</dim>
					<dim>1</dim>
					<dim>1</dim>
				</port>
			</output>
		</layer>
		<layer id="10" name="3503350725941" type="Const" version="opset1">
			<data offset="16" size="4" shape="1,1,1,1" element_type="f32"/>
			<output>
				<port id="0" precision="FP32">
					<dim>1</dim>
					<dim>1</dim>
					<dim>1</dim>
					<dim>1</dim>
				</port>
			</output>
		</layer>
		<layer id="11" name="3504350827072" type="Const" version="opset1">
			<data offset="20" size="4" shape="1,1,1,1" element_type="f32"/>
			<output>
				<port id="0" precision="FP32">
					<dim>1</dim>
					<dim>1</dim>
					<dim>1</dim>
					<dim>1</dim>
				</port>
			</output>
		</layer>
		<layer id="12" name="3841384524780" type="Const" version="opset1">
			<data offset="24" size="4" shape="1,1,1,1" element_type="f32"/>
			<output>
				<port id="0" precision="FP32">
					<dim>1</dim>
					<dim>1</dim>
					<dim>1</dim>
					<dim>1</dim>
				</port>
			</output>
		</layer>
		<layer id="13" name="3842384624936" type="Const" version="opset1">
			<data offset="28" size="4" shape="1,1,1,1" element_type="f32"/>
			<output>
				<port id="0" precision="FP32">
					<dim>1</dim>
					<dim>1</dim>
					<dim>1</dim>
					<dim>1</dim>
				</port>
			</output>
		</layer>
		<layer id="14" name="3843384727384" type="Const" version="opset1">
			<data offset="24" size="4" shape="1,1,1,1" element_type="f32"/>
			<output>
				<port id="0" precision="FP32">
					<dim>1</dim>
					<dim>1</dim>
					<dim>1</dim>
					<dim>1</dim>
				</port>
			</output>
		</layer>
		<layer id="15" name="3844384827687" type="Const" version="opset1">
			<data offset="28" size="4" shape="1,1,1,1" element_type="f32"/>
			<output>
				<port id="0" precision="FP32">
					<dim>1</dim>
					<dim>1</dim>
					<dim>1</dim>
					<dim>1</dim>
				</port>
			</output>
		</layer>
		<layer id="16" name="5501550525899" type="Const" version="opset1">
			<data offset="32" size="4" shape="1,1,1,1" element_type="f32"/>
			<output>
				<port id="0" precision="FP32">
					<dim>1</dim>
					<dim>1</dim>
					<dim>1</dim>
					<dim>1</dim>
				</port>
			</output>
		</layer>
		<layer id="17" name="5502550627288" type="Const" version="opset1">
			<data offset="36" size="4" shape="1,1,1,1" element_type="f32"/>
			<output>
				<port id="0" precision="FP32">
					<dim>1</dim>
					<dim>1</dim>
					<dim>1</dim>
					<dim>1</dim>
				</port>
			</output>
		</layer>
		<layer id="18" name="5503550724702" type="Const" version="opset1">
			<data offset="32" size="4" shape="1,1,1,1" element_type="f32"/>
			<output>
				<port id="0" precision="FP32">
					<dim>1</dim>
					<dim>1</dim>
					<dim>1</dim>
					<dim>1</dim>
				</port>
			</output>
		</layer>
		<layer id="19" name="5504550824747" type="Const" version="opset1">
			<data offset="36" size="4" shape="1,1,1,1" element_type="f32"/>
			<output>
				<port id="0" precision="FP32">
					<dim>1</dim>
					<dim>1</dim>
					<dim>1</dim>
					<dim>1</dim>
				</port>
			</output>
		</layer>
		<layer id="20" name="5101510526982" type="Const" version="opset1">
			<data offset="40" size="4" shape="1,1,1,1" element_type="f32"/>
			<output>
				<port id="0" precision="FP32">
					<dim>1</dim>
					<dim>1</dim>
					<dim>1</dim>
					<dim>1</dim>
				</port>
			</output>
		</layer>
		<layer id="21" name="5102510625500" type="Const" version="opset1">
			<data offset="44" size="4" shape="1,1,1,1" element_type="f32"/>
			<output>
				<port id="0" precision="FP32">
					<dim>1</dim>
					<dim>1</dim>
					<dim>1</dim>
					<dim>1</dim>
				</port>
			</output>
		</layer>
		<layer id="22" name="5103510727459" type="Const" version="opset1">
			<data offset="40" size="4" shape="1,1,1,1" element_type="f32"/>
			<output>
				<port id="0" precision="FP32">
					<dim>1</dim>
					<dim>1</dim>
					<dim>1</dim>
					<dim>1</dim>
				</port>
			</output>
		</layer>
		<layer id="23" name="5104510825182" type="Const" version="opset1">
			<data offset="44" size="4" shape="1,1,1,1" element_type="f32"/>
			<output>
				<port id="0" precision="FP32">
					<dim>1</dim>
					<dim>1</dim>
					<dim>1</dim>
					<dim>1</dim>
				</port>
			</output>
		</layer>
		<layer id="25" name="data_mul_2444474725995" type="Const" version="opset1">
			<data offset="48" size="12" shape="1,3,1,1" element_type="f32"/>
			<output>
				<port id="0" precision="FP32">
					<dim>1</dim>
					<dim>3</dim>
					<dim>1</dim>
					<dim>1</dim>
				</port>
			</output>
		</layer>
		<layer id="26" name="data/norm/bn/mean/Fused_Mul_" type="Multiply" version="opset1">
			<data auto_broadcast="numpy"/>
			<input>
				<port id="0">
					<dim>1</dim>
					<dim>3</dim>
					<dim>320</dim>
					<dim>544</dim>
				</port>
				<port id="1">
					<dim>1</dim>
					<dim>3</dim>
					<dim>1</dim>
					<dim>1</dim>
				</port>
			</input>
			<output>
				<port id="2" precision="FP32">
					<dim>1</dim>
					<dim>3</dim>
					<dim>320</dim>
					<dim>544</dim>
				</port>
			</output>
		</layer>
		<layer id="27" name="data_add_2444674926031" type="Const" version="opset1">
			<data offset="60" size="12" shape="1,3,1,1" element_type="f32"/>
			<output>
				<port id="0" precision="FP32">
					<dim>1</dim>
					<dim>3</dim>
					<dim>1</dim>
					<dim>1</dim>
				</port>
			</output>
		</layer>
		<layer id="28" name="data/norm/bn/variance/Fused_Add_" type="Add" version="opset1">
			<data auto_broadcast="numpy"/>
			<input>
				<port id="0">
					<dim>1</dim>
					<dim>3</dim>
					<dim>320</dim>
					<dim>544</dim>
				</port>
				<port id="1">
					<dim>1</dim>
					<dim>3</dim>
					<dim>1</dim>
					<dim>1</dim>
				</port>
			</input>
			<output>
				<port id="2" precision="FP32" names="data/norm/bn">
					<dim>1</dim>
					<dim>3</dim>
					<dim>320</dim>
					<dim>544</dim>
				</port>
			</output>
		</layer>
		<layer id="29" name="init_block1/dim_inc/conv/fq_input_0" type="FakeQuantize" version="opset1">
			<data levels="256" auto_broadcast="numpy"/>
			<input>
				<port id="0">
					<dim>1</dim>
					<dim>3</dim>
					<dim>320</dim>
					<dim>544</dim>
				</port>
				<port id="1">
					<dim>1</dim>
					<dim>1</dim>
					<dim>1</dim>
					<dim>1</dim>
				</port>
				<port id="2">
					<dim>1</dim>
					<dim>1</dim>
					<dim>1</dim>
					<dim>1</dim>
				</port>
				<port id="3">
					<dim>1</dim>
					<dim>1</dim>
					<dim>1</dim>
					<dim>1</dim>
				</port>
				<port id="4">
					<dim>1</dim>
					<dim>1</dim>
					<dim>1</dim>
					<dim>1</dim>
				</port>
			</input>
			<output>
				<port id="5" precision="FP32">
					<dim>1</dim>
					<dim>3</dim>
					<dim>320</dim>
					<dim>544</dim>
				</port>
			</output>
		</layer>
		<layer id="30" name="init_block1/dim_inc/conv/fq_weights_1/scale1555927669" type="Const" version="opset1">
			<data offset="72" size="128" shape="32,1,1,1" element_type="f32"/>
			<output>
				<port id="0" precision="FP32">
					<dim>32</dim>
					<dim>1</dim>
					<dim>1</dim>
					<dim>1</dim>
				</port>
			</output>
		</layer>
		<layer id="31" name="init_block1/dim_inc/bn/mean/Fused_Mul__copy75113243/quantized1555127345" type="Const" version="opset1">
			<data offset="200" size="864" shape="32,3,3,3" element_type="i8"/>
			<output>
				<port id="0" precision="I8">
					<dim>32</dim>
					<dim>3</dim>
					<dim>3</dim>
					<dim>3</dim>
				</port>
			</output>
		</layer>
		<layer id="32" name="init_block1/dim_inc/bn/mean/Fused_Mul__copy75113243/quantized/to_f32" type="Convert" version="opset1">
			<data destination_type="f32"/>
			<input>
				<port id="0">
					<dim>32</dim>
					<dim>3</dim>
					<dim>3</dim>
					<dim>3</dim>
				</port>
			</input>
			<output>
				<port id="1" precision="FP32">
					<dim>32</dim>
					<dim>3</dim>
					<dim>3</dim>
					<dim>3</dim>
				</port>
			</output>
		</layer>
		<layer id="33" name="init_block1/dim_inc/conv/fq_weights_1/mulpiply_by_scale" type="Multiply" version="opset1">
			<data auto_broadcast="numpy"/>
			<input>
				<port id="0">
					<dim>32</dim>
					<dim>3</dim>
					<dim>3</dim>
					<dim>3</dim>
				</port>
				<port id="1">
					<dim>32</dim>
					<dim>1</dim>
					<dim>1</dim>
					<dim>1</dim>
				</port>
			</input>
			<output>
				<port id="2" precision="FP32">
					<dim>32</dim>
					<dim>3</dim>
					<dim>3</dim>
					<dim>3</dim>
				</port>
			</output>
		</layer>
		<layer id="34" name="init_block1/dim_inc/conv" type="Convolution" version="opset1">
			<data auto_pad="explicit" strides="2,2" dilations="1,1" pads_begin="1,1" pads_end="1,1"/>
			<input>
				<port id="0">
					<dim>1</dim>
					<dim>3</dim>
					<dim>320</dim>
					<dim>544</dim>
				</port>
				<port id="1">
					<dim>32</dim>
					<dim>3</dim>
					<dim>3</dim>
					<dim>3</dim>
				</port>
			</input>
			<output>
				<port id="2" precision="FP32">
					<dim>1</dim>
					<dim>32</dim>
					<dim>160</dim>
					<dim>272</dim>
				</port>
			</output>
		</layer>
		<layer id="35" name="data_add_244492445475325152" type="Const" version="opset1">
			<data offset="1064" size="128" shape="1,32,1,1" element_type="f32"/>
			<output>
				<port id="0" precision="FP32">
					<dim>1</dim>
					<dim>32</dim>
					<dim>1</dim>
					<dim>1</dim>
				</port>
			</output>
		</layer>
		<layer id="36" name="init_block1/dim_inc/bn/variance/Fused_Add_" type="Add" version="opset1">
			<data auto_broadcast="numpy"/>
			<input>
				<port id="0">
					<dim>1</dim>
					<dim>32</dim>
					<dim>160</dim>
					<dim>272</dim>
				</port>
				<port id="1">
					<dim>1</dim>
					<dim>32</dim>
					<dim>1</dim>
					<dim>1</dim>
				</port>
			</input>
			<output>
				<port id="2" precision="FP32" names="init_block1/dim_inc/conv">
					<dim>1</dim>
					<dim>32</dim>
					<dim>160</dim>
					<dim>272</dim>
				</port>
			</output>
		</layer>
		<layer id="37" name="init_block1/dim_inc/fn" type="ReLU" version="opset1">
			<input>
				<port id="0">
					<dim>1</dim>
					<dim>32</dim>
					<dim>160</dim>
					<dim>272</dim>
				</port>
			</input>
			<output>
				<port id="1" precision="FP32" names="init_block1/dim_inc/conv">
					<dim>1</dim>
					<dim>32</dim>
					<dim>160</dim>
					<dim>272</dim>
				</port>
			</output>
		</layer>
		<layer id="38" name="bottleneck1_1/add/fq_input_0" type="FakeQuantize" version="opset1">
			<data levels="256" auto_broadcast="numpy"/>
			<input>
				<port id="0">
					<dim>1</dim>
					<dim>32</dim>
					<dim>160</dim>
					<dim>272</dim>
				</port>
				<port id="1">
					<dim>1</dim>
					<dim>1</dim>
					<dim>1</dim>
					<dim>1</dim>
				</port>
				<port id="2">
					<dim>1</dim>
					<dim>1</dim>
					<dim>1</dim>
					<dim>1</dim>
				</port>
				<port id="3">
					<dim>1</dim>
					<dim>1</dim>
					<dim>1</dim>
					<dim>1</dim>
				</port>
				<port id="4">
					<dim>1</dim>
					<dim>1</dim>
					<dim>1</dim>
					<dim>1</dim>
				</port>
			</input>
			<output>
				<port id="5" precision="FP32">
					<dim>1</dim>
					<dim>32</dim>
					<dim>160</dim>
					<dim>272</dim>
				</port>
			</output>
		</layer>
		<layer id="39" name="5511551524672" type="Const" version="opset1">
			<data offset="1192" size="4" shape="1,1,1,1" element_type="f32"/>
			<output>
				<port id="0" precision="FP32">
					<dim>1</dim>
					<dim>1</dim>
					<dim>1</dim>
					<dim>1</dim>
				</port>
			</output>
		</layer>
		<layer id="40" name="5512551625644" type="Const" version="opset1">
			<data offset="1196" size="4" shape="1,1,1,1" element_type="f32"/>
			<output>
				<port id="0" precision="FP32">
					<dim>1</dim>
					<dim>1</dim>
					<dim>1</dim>
					<dim>1</dim>
				</port>
			</output>
		</layer>
		<layer id="41" name="5513551727414" type="Const" version="opset1">
			<data offset="1192" size="4" shape="1,1,1,1" element_type="f32"/>
			<output>
				<port id="0" precision="FP32">
					<dim>1</dim>
					<dim>1</dim>
					<dim>1</dim>
					<dim>1</dim>
				</port>
			</output>
		</layer>
		<layer id="42" name="5514551826301" type="Const" version="opset1">
			<data offset="1196" size="4" shape="1,1,1,1" element_type="f32"/>
			<output>
				<port id="0" precision="FP32">
					<dim>1</dim>
					<dim>1</dim>
					<dim>1</dim>
					<dim>1</dim>
				</port>
			</output>
		</layer>
		<layer id="43" name="3301330526259" type="Const" version="opset1">
			<data offset="1200" size="4" shape="1,1,1,1" element_type="f32"/>
			<output>
				<port id="0" precision="FP32">
					<dim>1</dim>
					<dim>1</dim>
					<dim>1</dim>
					<dim>1</dim>
				</port>
			</output>
		</layer>
		<layer id="44" name="3302330625683" type="Const" version="opset1">
			<data offset="1204" size="4" shape="1,1,1,1" element_type="f32"/>
			<output>
				<port id="0" precision="FP32">
					<dim>1</dim>
					<dim>1</dim>
					<dim>1</dim>
					<dim>1</dim>
				</port>
			</output>
		</layer>
		<layer id="45" name="3303330726505" type="Const" version="opset1">
			<data offset="1200" size="4" shape="1,1,1,1" element_type="f32"/>
			<output>
				<port id="0" precision="FP32">
					<dim>1</dim>
					<dim>1</dim>
					<dim>1</dim>
					<dim>1</dim>
				</port>
			</output>
		</layer>
		<layer id="46" name="3304330824693" type="Const" version="opset1">
			<data offset="1204" size="4" shape="1,1,1,1" element_type="f32"/>
			<output>
				<port id="0" precision="FP32">
					<dim>1</dim>
					<dim>1</dim>
					<dim>1</dim>
					<dim>1</dim>
				</port>
			</output>
		</layer>
		<layer id="47" name="4581458527468" type="Const" version="opset1">
			<data offset="1208" size="32" shape="1,8,1,1" element_type="f32"/>
			<output>
				<port id="0" precision="FP32">
					<dim>1</dim>
					<dim>8</dim>
					<dim>1</dim>
					<dim>1</dim>
				</port>
			</output>
		</layer>
		<layer id="48" name="4582458624792" type="Const" version="opset1">
			<data offset="1240" size="32" shape="1,8,1,1" element_type="f32"/>
			<output>
				<port id="0" precision="FP32">
					<dim>1</dim>
					<dim>8</dim>
					<dim>1</dim>
					<dim>1</dim>
				</port>
			</output>
		</layer>
		<layer id="49" name="4583458726253" type="Const" version="opset1">
			<data offset="1208" size="32" shape="1,8,1,1" element_type="f32"/>
			<output>
				<port id="0" precision="FP32">
					<dim>1</dim>
					<dim>8</dim>
					<dim>1</dim>
					<dim>1</dim>
				</port>
			</output>
		</layer>
		<layer id="50" name="4584458826619" type="Const" version="opset1">
			<data offset="1240" size="32" shape="1,8,1,1" element_type="f32"/>
			<output>
				<port id="0" precision="FP32">
					<dim>1</dim>
					<dim>8</dim>
					<dim>1</dim>
					<dim>1</dim>
				</port>
			</output>
		</layer>
		<layer id="51" name="bottleneck1_1/dim_red/conv/fq_weights_1/scale1498927723" type="Const" version="opset1">
			<data offset="1272" size="32" shape="8,1,1,1" element_type="f32"/>
			<output>
				<port id="0" precision="FP32">
					<dim>8</dim>
					<dim>1</dim>
					<dim>1</dim>
					<dim>1</dim>
				</port>
			</output>
		</layer>
		<layer id="52" name="bottleneck1_1/dim_red/bn/mean/Fused_Mul__copy75613245/quantized1498126292" type="Const" version="opset1">
			<data offset="1304" size="256" shape="8,32,1,1" element_type="i8"/>
			<output>
				<port id="0" precision="I8">
					<dim>8</dim>
					<dim>32</dim>
					<dim>1</dim>
					<dim>1</dim>
				</port>
			</output>
		</layer>
		<layer id="53" name="bottleneck1_1/dim_red/bn/mean/Fused_Mul__copy75613245/quantized/to_f32" type="Convert" version="opset1">
			<data destination_type="f32"/>
			<input>
				<port id="0">
					<dim>8</dim>
					<dim>32</dim>
					<dim>1</dim>
					<dim>1</dim>
				</port>
			</input>
			<output>
				<port id="1" precision="FP32">
					<dim>8</dim>
					<dim>32</dim>
					<dim>1</dim>
					<dim>1</dim>
				</port>
			</output>
		</layer>
		<layer id="54" name="bottleneck1_1/dim_red/conv/fq_weights_1/mulpiply_by_scale" type="Multiply" version="opset1">
			<data auto_broadcast="numpy"/>
			<input>
				<port id="0">
					<dim>8</dim>
					<dim>32</dim>
					<dim>1</dim>
					<dim>1</dim>
				</port>
				<port id="1">
					<dim>8</dim>
					<dim>1</dim>
					<dim>1</dim>
					<dim>1</dim>
				</port>
			</input>
			<output>
				<port id="2" precision="FP32">
					<dim>8</dim>
					<dim>32</dim>
					<dim>1</dim>
					<dim>1</dim>
				</port>
			</output>
		</layer>
		<layer id="55" name="bottleneck1_1/dim_red/conv" type="Convolution" version="opset1">
			<data auto_pad="explicit" strides="1,1" dilations="1,1" pads_begin="0,0" pads_end="0,0"/>
			<input>
				<port id="0">
					<dim>1</dim>
					<dim>32</dim>
					<dim>160</dim>
					<dim>272</dim>
				</port>
				<port id="1">
					<dim>8</dim>
					<dim>32</dim>
					<dim>1</dim>
					<dim>1</dim>
				</port>
			</input>
			<output>
				<port id="2" precision="FP32">
					<dim>1</dim>
					<dim>8</dim>
					<dim>160</dim>
					<dim>272</dim>
				</port>
			</output>
		</layer>
		<layer id="56" name="data_add_244572446275825953" type="Const" version="opset1">
			<data offset="1560" size="32" shape="1,8,1,1" element_type="f32"/>
			<output>
				<port id="0" precision="FP32">
					<dim>1</dim>
					<dim>8</dim>
					<dim>1</dim>
					<dim>1</dim>
				</port>
			</output>
		</layer>
		<layer id="57" name="bottleneck1_1/dim_red/bn/variance/Fused_Add_" type="Add" version="opset1">
			<data auto_broadcast="numpy"/>
			<input>
				<port id="0">
					<dim>1</dim>
					<dim>8</dim>
					<dim>160</dim>
					<dim>272</dim>
				</port>
				<port id="1">
					<dim>1</dim>
					<dim>8</dim>
					<dim>1</dim>
					<dim>1</dim>
				</port>
			</input>
			<output>
				<port id="2" precision="FP32" names="bottleneck1_1/dim_red/conv">
					<dim>1</dim>
					<dim>8</dim>
					<dim>160</dim>
					<dim>272</dim>
				</port>
			</output>
		</layer>
		<layer id="58" name="bottleneck1_1/dim_red/fn/weights3113239992760" type="Const" version="opset1">
			<data offset="1592" size="4" shape="1" element_type="f32"/>
			<output>
				<port id="0" precision="FP32">
					<dim>1</dim>
				</port>
			</output>
		</layer>
		<layer id="59" name="bottleneck1_1/dim_red/fn" type="PReLU" version="opset1">
			<input>
				<port id="0">
					<dim>1</dim>
					<dim>8</dim>
					<dim>160</dim>
					<dim>272</dim>
				</port>
				<port id="1">
					<dim>1</dim>
				</port>
			</input>
			<output>
				<port id="2" precision="FP32" names="bottleneck1_1/dim_red/conv">
					<dim>1</dim>
					<dim>8</dim>
					<dim>160</dim>
					<dim>272</dim>
				</port>
			</output>
		</layer>
		<layer id="60" name="bottleneck1_1/inner/dw1/conv/fq_input_0" type="FakeQuantize" version="opset1">
			<data levels="256" auto_broadcast="numpy"/>
			<input>
				<port id="0">
					<dim>1</dim>
					<dim>8</dim>
					<dim>160</dim>
					<dim>272</dim>
				</port>
				<port id="1">
					<dim>1</dim>
					<dim>8</dim>
					<dim>1</dim>
					<dim>1</dim>
				</port>
				<port id="2">
					<dim>1</dim>
					<dim>8</dim>
					<dim>1</dim>
					<dim>1</dim>
				</port>
				<port id="3">
					<dim>1</dim>
					<dim>8</dim>
					<dim>1</dim>
					<dim>1</dim>
				</port>
				<port id="4">
					<dim>1</dim>
					<dim>8</dim>
					<dim>1</dim>
					<dim>1</dim>
				</port>
			</input>
			<output>
				<port id="5" precision="FP32">
					<dim>1</dim>
					<dim>8</dim>
					<dim>160</dim>
					<dim>272</dim>
				</port>
			</output>
		</layer>
		<layer id="61" name="bottleneck1_1/inner/dw1/conv/weights_shape2160525173" type="Const" version="opset1">
			<data offset="1596" size="40" shape="5" element_type="i64"/>
			<output>
				<port id="0" precision="I64">
					<dim>5</dim>
				</port>
			</output>
		</layer>
		<layer id="62" name="bottleneck1_1/inner/dw1/conv/fq_weights_1/scale1561924732" type="Const" version="opset1">
			<data offset="1636" size="32" shape="8,1,1,1" element_type="f32"/>
			<output>
				<port id="0" precision="FP32">
					<dim>8</dim>
					<dim>1</dim>
					<dim>1</dim>
					<dim>1</dim>
				</port>
			</output>
		</layer>
		<layer id="63" name="bottleneck1_1/inner/dw1/bn/mean/Fused_Mul__copy76213248/quantized1561124597" type="Const" version="opset1">
			<data offset="1668" size="72" shape="8,1,3,3" element_type="i8"/>
			<output>
				<port id="0" precision="I8">
					<dim>8</dim>
					<dim>1</dim>
					<dim>3</dim>
					<dim>3</dim>
				</port>
			</output>
		</layer>
		<layer id="64" name="bottleneck1_1/inner/dw1/bn/mean/Fused_Mul__copy76213248/quantized/to_f32" type="Convert" version="opset1">
			<data destination_type="f32"/>
			<input>
				<port id="0">
					<dim>8</dim>
					<dim>1</dim>
					<dim>3</dim>
					<dim>3</dim>
				</port>
			</input>
			<output>
				<port id="1" precision="FP32">
					<dim>8</dim>
					<dim>1</dim>
					<dim>3</dim>
					<dim>3</dim>
				</port>
			</output>
		</layer>
		<layer id="65" name="bottleneck1_1/inner/dw1/conv/fq_weights_1/mulpiply_by_scale" type="Multiply" version="opset1">
			<data auto_broadcast="numpy"/>
			<input>
				<port id="0">
					<dim>8</dim>
					<dim>1</dim>
					<dim>3</dim>
					<dim>3</dim>
				</port>
				<port id="1">
					<dim>8</dim>
					<dim>1</dim>
					<dim>1</dim>
					<dim>1</dim>
				</port>
			</input>
			<output>
				<port id="2" precision="FP32">
					<dim>8</dim>
					<dim>1</dim>
					<dim>3</dim>
					<dim>3</dim>
				</port>
			</output>
		</layer>
		<layer id="66" name="21604" type="Reshape" version="opset1">
			<data special_zero="true"/>
			<input>
				<port id="0">
					<dim>8</dim>
					<dim>1</dim>
					<dim>3</dim>
					<dim>3</dim>
				</port>
				<port id="1">
					<dim>5</dim>
				</port>
			</input>
			<output>
				<port id="2" precision="FP32">
					<dim>8</dim>
					<dim>1</dim>
					<dim>1</dim>
					<dim>3</dim>
					<dim>3</dim>
				</port>
			</output>
		</layer>
		<layer id="67" name="bottleneck1_1/inner/dw1/conv" type="GroupConvolution" version="opset1">
			<data auto_pad="explicit" strides="1,1" dilations="1,1" pads_begin="1,1" pads_end="1,1"/>
			<input>
				<port id="0">
					<dim>1</dim>
					<dim>8</dim>
					<dim>160</dim>
					<dim>272</dim>
				</port>
				<port id="1">
					<dim>8</dim>
					<dim>1</dim>
					<dim>1</dim>
					<dim>3</dim>
					<dim>3</dim>
				</port>
			</input>
			<output>
				<port id="2" precision="FP32">
					<dim>1</dim>
					<dim>8</dim>
					<dim>160</dim>
					<dim>272</dim>
				</port>
			</output>
		</layer>
		<layer id="68" name="data_add_244652447076426493" type="Const" version="opset1">
			<data offset="1740" size="32" shape="1,8,1,1" element_type="f32"/>
			<output>
				<port id="0" precision="FP32">
					<dim>1</dim>
					<dim>8</dim>
					<dim>1</dim>
					<dim>1</dim>
				</port>
			</output>
		</layer>
		<layer id="69" name="bottleneck1_1/inner/dw1/bn/variance/Fused_Add_" type="Add" version="opset1">
			<data auto_broadcast="numpy"/>
			<input>
				<port id="0">
					<dim>1</dim>
					<dim>8</dim>
					<dim>160</dim>
					<dim>272</dim>
				</port>
				<port id="1">
					<dim>1</dim>
					<dim>8</dim>
					<dim>1</dim>
					<dim>1</dim>
				</port>
			</input>
			<output>
				<port id="2" precision="FP32" names="bottleneck1_1/inner/dw1/conv">
					<dim>1</dim>
					<dim>8</dim>
					<dim>160</dim>
					<dim>272</dim>
				</port>
			</output>
		</layer>
		<layer id="70" name="bottleneck1_1/inner/dw1/fn/weights3102040667766" type="Const" version="opset1">
			<data offset="1592" size="4" shape="1" element_type="f32"/>
			<output>
				<port id="0" precision="FP32">
					<dim>1</dim>
				</port>
			</output>
		</layer>
		<layer id="71" name="bottleneck1_1/inner/dw1/fn" type="PReLU" version="opset1">
			<input>
				<port id="0">
					<dim>1</dim>
					<dim>8</dim>
					<dim>160</dim>
					<dim>272</dim>
				</port>
				<port id="1">
					<dim>1</dim>
				</port>
			</input>
			<output>
				<port id="2" precision="FP32" names="bottleneck1_1/inner/dw1/conv">
					<dim>1</dim>
					<dim>8</dim>
					<dim>160</dim>
					<dim>272</dim>
				</port>
			</output>
		</layer>
		<layer id="72" name="bottleneck1_1/dim_inc/conv/fq_input_0" type="FakeQuantize" version="opset1">
			<data levels="256" auto_broadcast="numpy"/>
			<input>
				<port id="0">
					<dim>1</dim>
					<dim>8</dim>
					<dim>160</dim>
					<dim>272</dim>
				</port>
				<port id="1">
					<dim>1</dim>
					<dim>1</dim>
					<dim>1</dim>
					<dim>1</dim>
				</port>
				<port id="2">
					<dim>1</dim>
					<dim>1</dim>
					<dim>1</dim>
					<dim>1</dim>
				</port>
				<port id="3">
					<dim>1</dim>
					<dim>1</dim>
					<dim>1</dim>
					<dim>1</dim>
				</port>
				<port id="4">
					<dim>1</dim>
					<dim>1</dim>
					<dim>1</dim>
					<dim>1</dim>
				</port>
			</input>
			<output>
				<port id="5" precision="FP32">
					<dim>1</dim>
					<dim>8</dim>
					<dim>160</dim>
					<dim>272</dim>
				</port>
			</output>
		</layer>
		<layer id="73" name="bottleneck1_1/dim_inc/conv/fq_weights_1/scale1510924945" type="Const" version="opset1">
			<data offset="1772" size="128" shape="32,1,1,1" element_type="f32"/>
			<output>
				<port id="0" precision="FP32">
					<dim>32</dim>
					<dim>1</dim>
					<dim>1</dim>
					<dim>1</dim>
				</port>
			</output>
		</layer>
		<layer id="74" name="bottleneck1_1/dim_inc/bn/mean/Fused_Mul__copy76813251/quantized1510124636" type="Const" version="opset1">
			<data offset="1900" size="256" shape="32,8,1,1" element_type="i8"/>
			<output>
				<port id="0" precision="I8">
					<dim>32</dim>
					<dim>8</dim>
					<dim>1</dim>
					<dim>1</dim>
				</port>
			</output>
		</layer>
		<layer id="75" name="bottleneck1_1/dim_inc/bn/mean/Fused_Mul__copy76813251/quantized/to_f32" type="Convert" version="opset1">
			<data destination_type="f32"/>
			<input>
				<port id="0">
					<dim>32</dim>
					<dim>8</dim>
					<dim>1</dim>
					<dim>1</dim>
				</port>
			</input>
			<output>
				<port id="1" precision="FP32">
					<dim>32</dim>
					<dim>8</dim>
					<dim>1</dim>
					<dim>1</dim>
				</port>
			</output>
		</layer>
		<layer id="76" name="bottleneck1_1/dim_inc/conv/fq_weights_1/mulpiply_by_scale" type="Multiply" version="opset1">
			<data auto_broadcast="numpy"/>
			<input>
				<port id="0">
					<dim>32</dim>
					<dim>8</dim>
					<dim>1</dim>
					<dim>1</dim>
				</port>
				<port id="1">
					<dim>32</dim>
					<dim>1</dim>
					<dim>1</dim>
					<dim>1</dim>
				</port>
			</input>
			<output>
				<port id="2" precision="FP32">
					<dim>32</dim>
					<dim>8</dim>
					<dim>1</dim>
					<dim>1</dim>
				</port>
			</output>
		</layer>
		<layer id="77" name="bottleneck1_1/dim_inc/conv" type="Convolution" version="opset1">
			<data auto_pad="explicit" strides="1,1" dilations="1,1" pads_begin="0,0" pads_end="0,0"/>
			<input>
				<port id="0">
					<dim>1</dim>
					<dim>8</dim>
					<dim>160</dim>
					<dim>272</dim>
				</port>
				<port id="1">
					<dim>32</dim>
					<dim>8</dim>
					<dim>1</dim>
					<dim>1</dim>
				</port>
			</input>
			<output>
				<port id="2" precision="FP32">
					<dim>1</dim>
					<dim>32</dim>
					<dim>160</dim>
					<dim>272</dim>
				</port>
			</output>
		</layer>
		<layer id="78" name="data_add_244732447877026385" type="Const" version="opset1">
			<data offset="2156" size="128" shape="1,32,1,1" element_type="f32"/>
			<output>
				<port id="0" precision="FP32">
					<dim>1</dim>
					<dim>32</dim>
					<dim>1</dim>
					<dim>1</dim>
				</port>
			</output>
		</layer>
		<layer id="79" name="bottleneck1_1/dim_inc/bn/variance/Fused_Add_" type="Add" version="opset1">
			<data auto_broadcast="numpy"/>
			<input>
				<port id="0">
					<dim>1</dim>
					<dim>32</dim>
					<dim>160</dim>
					<dim>272</dim>
				</port>
				<port id="1">
					<dim>1</dim>
					<dim>32</dim>
					<dim>1</dim>
					<dim>1</dim>
				</port>
			</input>
			<output>
				<port id="2" precision="FP32" names="bottleneck1_1/dim_inc/conv">
					<dim>1</dim>
					<dim>32</dim>
					<dim>160</dim>
					<dim>272</dim>
				</port>
			</output>
		</layer>
		<layer id="80" name="bottleneck1_1/add/fq_input_1" type="FakeQuantize" version="opset1">
			<data levels="256" auto_broadcast="numpy"/>
			<input>
				<port id="0">
					<dim>1</dim>
					<dim>32</dim>
					<dim>160</dim>
					<dim>272</dim>
				</port>
				<port id="1">
					<dim>1</dim>
					<dim>1</dim>
					<dim>1</dim>
					<dim>1</dim>
				</port>
				<port id="2">
					<dim>1</dim>
					<dim>1</dim>
					<dim>1</dim>
					<dim>1</dim>
				</port>
				<port id="3">
					<dim>1</dim>
					<dim>1</dim>
					<dim>1</dim>
					<dim>1</dim>
				</port>
				<port id="4">
					<dim>1</dim>
					<dim>1</dim>
					<dim>1</dim>
					<dim>1</dim>
				</port>
			</input>
			<output>
				<port id="5" precision="FP32">
					<dim>1</dim>
					<dim>32</dim>
					<dim>160</dim>
					<dim>272</dim>
				</port>
			</output>
		</layer>
		<layer id="81" name="bottleneck1_1/add" type="Add" version="opset1">
			<data auto_broadcast="numpy"/>
			<input>
				<port id="0">
					<dim>1</dim>
					<dim>32</dim>
					<dim>160</dim>
					<dim>272</dim>
				</port>
				<port id="1">
					<dim>1</dim>
					<dim>32</dim>
					<dim>160</dim>
					<dim>272</dim>
				</port>
			</input>
			<output>
				<port id="2" precision="FP32" names="bottleneck1_1/add">
					<dim>1</dim>
					<dim>32</dim>
					<dim>160</dim>
					<dim>272</dim>
				</port>
			</output>
		</layer>
		<layer id="82" name="bottleneck1_1/fn/weights3092040535773" type="Const" version="opset1">
			<data offset="1592" size="4" shape="1" element_type="f32"/>
			<output>
				<port id="0" precision="FP32">
					<dim>1</dim>
				</port>
			</output>
		</layer>
		<layer id="83" name="bottleneck1_1/fn" type="PReLU" version="opset1">
			<input>
				<port id="0">
					<dim>1</dim>
					<dim>32</dim>
					<dim>160</dim>
					<dim>272</dim>
				</port>
				<port id="1">
					<dim>1</dim>
				</port>
			</input>
			<output>
				<port id="2" precision="FP32" names="bottleneck1_1/add">
					<dim>1</dim>
					<dim>32</dim>
					<dim>160</dim>
					<dim>272</dim>
				</port>
			</output>
		</layer>
		<layer id="84" name="bottleneck1_2/add/fq_input_0" type="FakeQuantize" version="opset1">
			<data levels="256" auto_broadcast="numpy"/>
			<input>
				<port id="0">
					<dim>1</dim>
					<dim>32</dim>
					<dim>160</dim>
					<dim>272</dim>
				</port>
				<port id="1">
					<dim>1</dim>
					<dim>1</dim>
					<dim>1</dim>
					<dim>1</dim>
				</port>
				<port id="2">
					<dim>1</dim>
					<dim>1</dim>
					<dim>1</dim>
					<dim>1</dim>
				</port>
				<port id="3">
					<dim>1</dim>
					<dim>1</dim>
					<dim>1</dim>
					<dim>1</dim>
				</port>
				<port id="4">
					<dim>1</dim>
					<dim>1</dim>
					<dim>1</dim>
					<dim>1</dim>
				</port>
			</input>
			<output>
				<port id="5" precision="FP32">
					<dim>1</dim>
					<dim>32</dim>
					<dim>160</dim>
					<dim>272</dim>
				</port>
			</output>
		</layer>
		<layer id="85" name="3851385527660" type="Const" version="opset1">
			<data offset="2284" size="4" shape="1,1,1,1" element_type="f32"/>
			<output>
				<port id="0" precision="FP32">
					<dim>1</dim>
					<dim>1</dim>
					<dim>1</dim>
					<dim>1</dim>
				</port>
			</output>
		</layer>
		<layer id="86" name="3852385626778" type="Const" version="opset1">
			<data offset="2288" size="4" shape="1,1,1,1" element_type="f32"/>
			<output>
				<port id="0" precision="FP32">
					<dim>1</dim>
					<dim>1</dim>
					<dim>1</dim>
					<dim>1</dim>
				</port>
			</output>
		</layer>
		<layer id="87" name="3853385725062" type="Const" version="opset1">
			<data offset="2284" size="4" shape="1,1,1,1" element_type="f32"/>
			<output>
				<port id="0" precision="FP32">
					<dim>1</dim>
					<dim>1</dim>
					<dim>1</dim>
					<dim>1</dim>
				</port>
			</output>
		</layer>
		<layer id="88" name="3854385825092" type="Const" version="opset1">
			<data offset="2288" size="4" shape="1,1,1,1" element_type="f32"/>
			<output>
				<port id="0" precision="FP32">
					<dim>1</dim>
					<dim>1</dim>
					<dim>1</dim>
					<dim>1</dim>
				</port>
			</output>
		</layer>
		<layer id="89" name="5801580524858" type="Const" version="opset1">
			<data offset="2292" size="4" shape="1,1,1,1" element_type="f32"/>
			<output>
				<port id="0" precision="FP32">
					<dim>1</dim>
					<dim>1</dim>
					<dim>1</dim>
					<dim>1</dim>
				</port>
			</output>
		</layer>
		<layer id="90" name="5802580626361" type="Const" version="opset1">
			<data offset="2296" size="4" shape="1,1,1,1" element_type="f32"/>
			<output>
				<port id="0" precision="FP32">
					<dim>1</dim>
					<dim>1</dim>
					<dim>1</dim>
					<dim>1</dim>
				</port>
			</output>
		</layer>
		<layer id="91" name="5803580727417" type="Const" version="opset1">
			<data offset="2292" size="4" shape="1,1,1,1" element_type="f32"/>
			<output>
				<port id="0" precision="FP32">
					<dim>1</dim>
					<dim>1</dim>
					<dim>1</dim>
					<dim>1</dim>
				</port>
			</output>
		</layer>
		<layer id="92" name="5804580826814" type="Const" version="opset1">
			<data offset="2296" size="4" shape="1,1,1,1" element_type="f32"/>
			<output>
				<port id="0" precision="FP32">
					<dim>1</dim>
					<dim>1</dim>
					<dim>1</dim>
					<dim>1</dim>
				</port>
			</output>
		</layer>
		<layer id="93" name="4801480527207" type="Const" version="opset1">
			<data offset="2300" size="32" shape="1,8,1,1" element_type="f32"/>
			<output>
				<port id="0" precision="FP32">
					<dim>1</dim>
					<dim>8</dim>
					<dim>1</dim>
					<dim>1</dim>
				</port>
			</output>
		</layer>
		<layer id="94" name="4802480624465" type="Const" version="opset1">
			<data offset="2332" size="32" shape="1,8,1,1" element_type="f32"/>
			<output>
				<port id="0" precision="FP32">
					<dim>1</dim>
					<dim>8</dim>
					<dim>1</dim>
					<dim>1</dim>
				</port>
			</output>
		</layer>
		<layer id="95" name="4803480727480" type="Const" version="opset1">
			<data offset="2300" size="32" shape="1,8,1,1" element_type="f32"/>
			<output>
				<port id="0" precision="FP32">
					<dim>1</dim>
					<dim>8</dim>
					<dim>1</dim>
					<dim>1</dim>
				</port>
			</output>
		</layer>
		<layer id="96" name="4804480825302" type="Const" version="opset1">
			<data offset="2332" size="32" shape="1,8,1,1" element_type="f32"/>
			<output>
				<port id="0" precision="FP32">
					<dim>1</dim>
					<dim>8</dim>
					<dim>1</dim>
					<dim>1</dim>
				</port>
			</output>
		</layer>
		<layer id="97" name="bottleneck1_2/dim_red/conv/fq_weights_1/scale1582927585" type="Const" version="opset1">
			<data offset="2364" size="32" shape="8,1,1,1" element_type="f32"/>
			<output>
				<port id="0" precision="FP32">
					<dim>8</dim>
					<dim>1</dim>
					<dim>1</dim>
					<dim>1</dim>
				</port>
			</output>
		</layer>
		<layer id="98" name="bottleneck1_2/dim_red/bn/mean/Fused_Mul__copy77513254/quantized1582125317" type="Const" version="opset1">
			<data offset="2396" size="256" shape="8,32,1,1" element_type="i8"/>
			<output>
				<port id="0" precision="I8">
					<dim>8</dim>
					<dim>32</dim>
					<dim>1</dim>
					<dim>1</dim>
				</port>
			</output>
		</layer>
		<layer id="99" name="bottleneck1_2/dim_red/bn/mean/Fused_Mul__copy77513254/quantized/to_f32" type="Convert" version="opset1">
			<data destination_type="f32"/>
			<input>
				<port id="0">
					<dim>8</dim>
					<dim>32</dim>
					<dim>1</dim>
					<dim>1</dim>
				</port>
			</input>
			<output>
				<port id="1" precision="FP32">
					<dim>8</dim>
					<dim>32</dim>
					<dim>1</dim>
					<dim>1</dim>
				</port>
			</output>
		</layer>
		<layer id="100" name="bottleneck1_2/dim_red/conv/fq_weights_1/mulpiply_by_scale" type="Multiply" version="opset1">
			<data auto_broadcast="numpy"/>
			<input>
				<port id="0">
					<dim>8</dim>
					<dim>32</dim>
					<dim>1</dim>
					<dim>1</dim>
				</port>
				<port id="1">
					<dim>8</dim>
					<dim>1</dim>
					<dim>1</dim>
					<dim>1</dim>
				</port>
			</input>
			<output>
				<port id="2" precision="FP32">
					<dim>8</dim>
					<dim>32</dim>
					<dim>1</dim>
					<dim>1</dim>
				</port>
			</output>
		</layer>
		<layer id="101" name="bottleneck1_2/dim_red/conv" type="Convolution" version="opset1">
			<data auto_pad="explicit" strides="1,1" dilations="1,1" pads_begin="0,0" pads_end="0,0"/>
			<input>
				<port id="0">
					<dim>1</dim>
					<dim>32</dim>
					<dim>160</dim>
					<dim>272</dim>
				</port>
				<port id="1">
					<dim>8</dim>
					<dim>32</dim>
					<dim>1</dim>
					<dim>1</dim>
				</port>
			</input>
			<output>
				<port id="2" precision="FP32">
					<dim>1</dim>
					<dim>8</dim>
					<dim>160</dim>
					<dim>272</dim>
				</port>
			</output>
		</layer>
		<layer id="102" name="data_add_244812448677726550" type="Const" version="opset1">
			<data offset="2652" size="32" shape="1,8,1,1" element_type="f32"/>
			<output>
				<port id="0" precision="FP32">
					<dim>1</dim>
					<dim>8</dim>
					<dim>1</dim>
					<dim>1</dim>
				</port>
			</output>
		</layer>
		<layer id="103" name="bottleneck1_2/dim_red/bn/variance/Fused_Add_" type="Add" version="opset1">
			<data auto_broadcast="numpy"/>
			<input>
				<port id="0">
					<dim>1</dim>
					<dim>8</dim>
					<dim>160</dim>
					<dim>272</dim>
				</port>
				<port id="1">
					<dim>1</dim>
					<dim>8</dim>
					<dim>1</dim>
					<dim>1</dim>
				</port>
			</input>
			<output>
				<port id="2" precision="FP32" names="bottleneck1_2/dim_red/conv">
					<dim>1</dim>
					<dim>8</dim>
					<dim>160</dim>
					<dim>272</dim>
				</port>
			</output>
		</layer>
		<layer id="104" name="bottleneck1_2/dim_red/fn/weights3108440841779" type="Const" version="opset1">
			<data offset="1592" size="4" shape="1" element_type="f32"/>
			<output>
				<port id="0" precision="FP32">
					<dim>1</dim>
				</port>
			</output>
		</layer>
		<layer id="105" name="bottleneck1_2/dim_red/fn" type="PReLU" version="opset1">
			<input>
				<port id="0">
					<dim>1</dim>
					<dim>8</dim>
					<dim>160</dim>
					<dim>272</dim>
				</port>
				<port id="1">
					<dim>1</dim>
				</port>
			</input>
			<output>
				<port id="2" precision="FP32" names="bottleneck1_2/dim_red/conv">
					<dim>1</dim>
					<dim>8</dim>
					<dim>160</dim>
					<dim>272</dim>
				</port>
			</output>
		</layer>
		<layer id="106" name="bottleneck1_2/inner/dw1/conv/fq_input_0" type="FakeQuantize" version="opset1">
			<data levels="256" auto_broadcast="numpy"/>
			<input>
				<port id="0">
					<dim>1</dim>
					<dim>8</dim>
					<dim>160</dim>
					<dim>272</dim>
				</port>
				<port id="1">
					<dim>1</dim>
					<dim>8</dim>
					<dim>1</dim>
					<dim>1</dim>
				</port>
				<port id="2">
					<dim>1</dim>
					<dim>8</dim>
					<dim>1</dim>
					<dim>1</dim>
				</port>
				<port id="3">
					<dim>1</dim>
					<dim>8</dim>
					<dim>1</dim>
					<dim>1</dim>
				</port>
				<port id="4">
					<dim>1</dim>
					<dim>8</dim>
					<dim>1</dim>
					<dim>1</dim>
				</port>
			</input>
			<output>
				<port id="5" precision="FP32">
					<dim>1</dim>
					<dim>8</dim>
					<dim>160</dim>
					<dim>272</dim>
				</port>
			</output>
		</layer>
		<layer id="107" name="bottleneck1_2/inner/dw1/conv/weights_shape2161926532" type="Const" version="opset1">
			<data offset="1596" size="40" shape="5" element_type="i64"/>
			<output>
				<port id="0" precision="I64">
					<dim>5</dim>
				</port>
			</output>
		</layer>
		<layer id="108" name="bottleneck1_2/inner/dw1/conv/fq_weights_1/scale1537925767" type="Const" version="opset1">
			<data offset="2684" size="32" shape="8,1,1,1" element_type="f32"/>
			<output>
				<port id="0" precision="FP32">
					<dim>8</dim>
					<dim>1</dim>
					<dim>1</dim>
					<dim>1</dim>
				</port>
			</output>
		</layer>
		<layer id="109" name="bottleneck1_2/inner/dw1/bn/mean/Fused_Mul__copy78113257/quantized1537126172" type="Const" version="opset1">
			<data offset="2716" size="72" shape="8,1,3,3" element_type="i8"/>
			<output>
				<port id="0" precision="I8">
					<dim>8</dim>
					<dim>1</dim>
					<dim>3</dim>
					<dim>3</dim>
				</port>
			</output>
		</layer>
		<layer id="110" name="bottleneck1_2/inner/dw1/bn/mean/Fused_Mul__copy78113257/quantized/to_f32" type="Convert" version="opset1">
			<data destination_type="f32"/>
			<input>
				<port id="0">
					<dim>8</dim>
					<dim>1</dim>
					<dim>3</dim>
					<dim>3</dim>
				</port>
			</input>
			<output>
				<port id="1" precision="FP32">
					<dim>8</dim>
					<dim>1</dim>
					<dim>3</dim>
					<dim>3</dim>
				</port>
			</output>
		</layer>
		<layer id="111" name="bottleneck1_2/inner/dw1/conv/fq_weights_1/mulpiply_by_scale" type="Multiply" version="opset1">
			<data auto_broadcast="numpy"/>
			<input>
				<port id="0">
					<dim>8</dim>
					<dim>1</dim>
					<dim>3</dim>
					<dim>3</dim>
				</port>
				<port id="1">
					<dim>8</dim>
					<dim>1</dim>
					<dim>1</dim>
					<dim>1</dim>
				</port>
			</input>
			<output>
				<port id="2" precision="FP32">
					<dim>8</dim>
					<dim>1</dim>
					<dim>3</dim>
					<dim>3</dim>
				</port>
			</output>
		</layer>
		<layer id="112" name="21618" type="Reshape" version="opset1">
			<data special_zero="true"/>
			<input>
				<port id="0">
					<dim>8</dim>
					<dim>1</dim>
					<dim>3</dim>
					<dim>3</dim>
				</port>
				<port id="1">
					<dim>5</dim>
				</port>
			</input>
			<output>
				<port id="2" precision="FP32">
					<dim>8</dim>
					<dim>1</dim>
					<dim>1</dim>
					<dim>3</dim>
					<dim>3</dim>
				</port>
			</output>
		</layer>
		<layer id="113" name="bottleneck1_2/inner/dw1/conv" type="GroupConvolution" version="opset1">
			<data auto_pad="explicit" strides="1,1" dilations="1,1" pads_begin="1,1" pads_end="1,1"/>
			<input>
				<port id="0">
					<dim>1</dim>
					<dim>8</dim>
					<dim>160</dim>
					<dim>272</dim>
				</port>
				<port id="1">
					<dim>8</dim>
					<dim>1</dim>
					<dim>1</dim>
					<dim>3</dim>
					<dim>3</dim>
				</port>
			</input>
			<output>
				<port id="2" precision="FP32">
					<dim>1</dim>
					<dim>8</dim>
					<dim>160</dim>
					<dim>272</dim>
				</port>
			</output>
		</layer>
		<layer id="114" name="data_add_244892449478327519" type="Const" version="opset1">
			<data offset="2788" size="32" shape="1,8,1,1" element_type="f32"/>
			<output>
				<port id="0" precision="FP32">
					<dim>1</dim>
					<dim>8</dim>
					<dim>1</dim>
					<dim>1</dim>
				</port>
			</output>
		</layer>
		<layer id="115" name="bottleneck1_2/inner/dw1/bn/variance/Fused_Add_" type="Add" version="opset1">
			<data auto_broadcast="numpy"/>
			<input>
				<port id="0">
					<dim>1</dim>
					<dim>8</dim>
					<dim>160</dim>
					<dim>272</dim>
				</port>
				<port id="1">
					<dim>1</dim>
					<dim>8</dim>
					<dim>1</dim>
					<dim>1</dim>
				</port>
			</input>
			<output>
				<port id="2" precision="FP32" names="bottleneck1_2/inner/dw1/conv">
					<dim>1</dim>
					<dim>8</dim>
					<dim>160</dim>
					<dim>272</dim>
				</port>
			</output>
		</layer>
		<layer id="116" name="bottleneck1_2/inner/dw1/fn/weights3115640640785" type="Const" version="opset1">
			<data offset="1592" size="4" shape="1" element_type="f32"/>
			<output>
				<port id="0" precision="FP32">
					<dim>1</dim>
				</port>
			</output>
		</layer>
		<layer id="117" name="bottleneck1_2/inner/dw1/fn" type="PReLU" version="opset1">
			<input>
				<port id="0">
					<dim>1</dim>
					<dim>8</dim>
					<dim>160</dim>
					<dim>272</dim>
				</port>
				<port id="1">
					<dim>1</dim>
				</port>
			</input>
			<output>
				<port id="2" precision="FP32" names="bottleneck1_2/inner/dw1/conv">
					<dim>1</dim>
					<dim>8</dim>
					<dim>160</dim>
					<dim>272</dim>
				</port>
			</output>
		</layer>
		<layer id="118" name="bottleneck1_2/dim_inc/conv/fq_input_0" type="FakeQuantize" version="opset1">
			<data levels="256" auto_broadcast="numpy"/>
			<input>
				<port id="0">
					<dim>1</dim>
					<dim>8</dim>
					<dim>160</dim>
					<dim>272</dim>
				</port>
				<port id="1">
					<dim>1</dim>
					<dim>1</dim>
					<dim>1</dim>
					<dim>1</dim>
				</port>
				<port id="2">
					<dim>1</dim>
					<dim>1</dim>
					<dim>1</dim>
					<dim>1</dim>
				</port>
				<port id="3">
					<dim>1</dim>
					<dim>1</dim>
					<dim>1</dim>
					<dim>1</dim>
				</port>
				<port id="4">
					<dim>1</dim>
					<dim>1</dim>
					<dim>1</dim>
					<dim>1</dim>
				</port>
			</input>
			<output>
				<port id="5" precision="FP32">
					<dim>1</dim>
					<dim>8</dim>
					<dim>160</dim>
					<dim>272</dim>
				</port>
			</output>
		</layer>
		<layer id="119" name="bottleneck1_2/dim_inc/conv/fq_weights_1/scale1720925758" type="Const" version="opset1">
			<data offset="2820" size="128" shape="32,1,1,1" element_type="f32"/>
			<output>
				<port id="0" precision="FP32">
					<dim>32</dim>
					<dim>1</dim>
					<dim>1</dim>
					<dim>1</dim>
				</port>
			</output>
		</layer>
		<layer id="120" name="bottleneck1_2/dim_inc/bn/mean/Fused_Mul__copy78713260/quantized1720126220" type="Const" version="opset1">
			<data offset="2948" size="256" shape="32,8,1,1" element_type="i8"/>
			<output>
				<port id="0" precision="I8">
					<dim>32</dim>
					<dim>8</dim>
					<dim>1</dim>
					<dim>1</dim>
				</port>
			</output>
		</layer>
		<layer id="121" name="bottleneck1_2/dim_inc/bn/mean/Fused_Mul__copy78713260/quantized/to_f32" type="Convert" version="opset1">
			<data destination_type="f32"/>
			<input>
				<port id="0">
					<dim>32</dim>
					<dim>8</dim>
					<dim>1</dim>
					<dim>1</dim>
				</port>
			</input>
			<output>
				<port id="1" precision="FP32">
					<dim>32</dim>
					<dim>8</dim>
					<dim>1</dim>
					<dim>1</dim>
				</port>
			</output>
		</layer>
		<layer id="122" name="bottleneck1_2/dim_inc/conv/fq_weights_1/mulpiply_by_scale" type="Multiply" version="opset1">
			<data auto_broadcast="numpy"/>
			<input>
				<port id="0">
					<dim>32</dim>
					<dim>8</dim>
					<dim>1</dim>
					<dim>1</dim>
				</port>
				<port id="1">
					<dim>32</dim>
					<dim>1</dim>
					<dim>1</dim>
					<dim>1</dim>
				</port>
			</input>
			<output>
				<port id="2" precision="FP32">
					<dim>32</dim>
					<dim>8</dim>
					<dim>1</dim>
					<dim>1</dim>
				</port>
			</output>
		</layer>
		<layer id="123" name="bottleneck1_2/dim_inc/conv" type="Convolution" version="opset1">
			<data auto_pad="explicit" strides="1,1" dilations="1,1" pads_begin="0,0" pads_end="0,0"/>
			<input>
				<port id="0">
					<dim>1</dim>
					<dim>8</dim>
					<dim>160</dim>
					<dim>272</dim>
				</port>
				<port id="1">
					<dim>32</dim>
					<dim>8</dim>
					<dim>1</dim>
					<dim>1</dim>
				</port>
			</input>
			<output>
				<port id="2" precision="FP32">
					<dim>1</dim>
					<dim>32</dim>
					<dim>160</dim>
					<dim>272</dim>
				</port>
			</output>
		</layer>
		<layer id="124" name="data_add_244972450278927450" type="Const" version="opset1">
			<data offset="3204" size="128" shape="1,32,1,1" element_type="f32"/>
			<output>
				<port id="0" precision="FP32">
					<dim>1</dim>
					<dim>32</dim>
					<dim>1</dim>
					<dim>1</dim>
				</port>
			</output>
		</layer>
		<layer id="125" name="bottleneck1_2/dim_inc/bn/variance/Fused_Add_" type="Add" version="opset1">
			<data auto_broadcast="numpy"/>
			<input>
				<port id="0">
					<dim>1</dim>
					<dim>32</dim>
					<dim>160</dim>
					<dim>272</dim>
				</port>
				<port id="1">
					<dim>1</dim>
					<dim>32</dim>
					<dim>1</dim>
					<dim>1</dim>
				</port>
			</input>
			<output>
				<port id="2" precision="FP32" names="bottleneck1_2/dim_inc/conv">
					<dim>1</dim>
					<dim>32</dim>
					<dim>160</dim>
					<dim>272</dim>
				</port>
			</output>
		</layer>
		<layer id="126" name="bottleneck1_2/add/fq_input_1" type="FakeQuantize" version="opset1">
			<data levels="256" auto_broadcast="numpy"/>
			<input>
				<port id="0">
					<dim>1</dim>
					<dim>32</dim>
					<dim>160</dim>
					<dim>272</dim>
				</port>
				<port id="1">
					<dim>1</dim>
					<dim>1</dim>
					<dim>1</dim>
					<dim>1</dim>
				</port>
				<port id="2">
					<dim>1</dim>
					<dim>1</dim>
					<dim>1</dim>
					<dim>1</dim>
				</port>
				<port id="3">
					<dim>1</dim>
					<dim>1</dim>
					<dim>1</dim>
					<dim>1</dim>
				</port>
				<port id="4">
					<dim>1</dim>
					<dim>1</dim>
					<dim>1</dim>
					<dim>1</dim>
				</port>
			</input>
			<output>
				<port id="5" precision="FP32">
					<dim>1</dim>
					<dim>32</dim>
					<dim>160</dim>
					<dim>272</dim>
				</port>
			</output>
		</layer>
		<layer id="127" name="bottleneck1_2/add" type="Add" version="opset1">
			<data auto_broadcast="numpy"/>
			<input>
				<port id="0">
					<dim>1</dim>
					<dim>32</dim>
					<dim>160</dim>
					<dim>272</dim>
				</port>
				<port id="1">
					<dim>1</dim>
					<dim>32</dim>
					<dim>160</dim>
					<dim>272</dim>
				</port>
			</input>
			<output>
				<port id="2" precision="FP32" names="bottleneck1_2/add">
					<dim>1</dim>
					<dim>32</dim>
					<dim>160</dim>
					<dim>272</dim>
				</port>
			</output>
		</layer>
		<layer id="128" name="bottleneck1_2/fn/weights3089640202792" type="Const" version="opset1">
			<data offset="1592" size="4" shape="1" element_type="f32"/>
			<output>
				<port id="0" precision="FP32">
					<dim>1</dim>
				</port>
			</output>
		</layer>
		<layer id="129" name="bottleneck1_2/fn" type="PReLU" version="opset1">
			<input>
				<port id="0">
					<dim>1</dim>
					<dim>32</dim>
					<dim>160</dim>
					<dim>272</dim>
				</port>
				<port id="1">
					<dim>1</dim>
				</port>
			</input>
			<output>
				<port id="2" precision="FP32" names="bottleneck1_2/add">
					<dim>1</dim>
					<dim>32</dim>
					<dim>160</dim>
					<dim>272</dim>
				</port>
			</output>
		</layer>
		<layer id="130" name="bottleneck1_3/add/fq_input_0" type="FakeQuantize" version="opset1">
			<data levels="256" auto_broadcast="numpy"/>
			<input>
				<port id="0">
					<dim>1</dim>
					<dim>32</dim>
					<dim>160</dim>
					<dim>272</dim>
				</port>
				<port id="1">
					<dim>1</dim>
					<dim>1</dim>
					<dim>1</dim>
					<dim>1</dim>
				</port>
				<port id="2">
					<dim>1</dim>
					<dim>1</dim>
					<dim>1</dim>
					<dim>1</dim>
				</port>
				<port id="3">
					<dim>1</dim>
					<dim>1</dim>
					<dim>1</dim>
					<dim>1</dim>
				</port>
				<port id="4">
					<dim>1</dim>
					<dim>1</dim>
					<dim>1</dim>
					<dim>1</dim>
				</port>
			</input>
			<output>
				<port id="5" precision="FP32">
					<dim>1</dim>
					<dim>32</dim>
					<dim>160</dim>
					<dim>272</dim>
				</port>
			</output>
		</layer>
		<layer id="131" name="3511351527201" type="Const" version="opset1">
			<data offset="3332" size="4" shape="1,1,1,1" element_type="f32"/>
			<output>
				<port id="0" precision="FP32">
					<dim>1</dim>
					<dim>1</dim>
					<dim>1</dim>
					<dim>1</dim>
				</port>
			</output>
		</layer>
		<layer id="132" name="3512351625209" type="Const" version="opset1">
			<data offset="3336" size="4" shape="1,1,1,1" element_type="f32"/>
			<output>
				<port id="0" precision="FP32">
					<dim>1</dim>
					<dim>1</dim>
					<dim>1</dim>
					<dim>1</dim>
				</port>
			</output>
		</layer>
		<layer id="133" name="3513351727246" type="Const" version="opset1">
			<data offset="3332" size="4" shape="1,1,1,1" element_type="f32"/>
			<output>
				<port id="0" precision="FP32">
					<dim>1</dim>
					<dim>1</dim>
					<dim>1</dim>
					<dim>1</dim>
				</port>
			</output>
		</layer>
		<layer id="134" name="3514351825962" type="Const" version="opset1">
			<data offset="3336" size="4" shape="1,1,1,1" element_type="f32"/>
			<output>
				<port id="0" precision="FP32">
					<dim>1</dim>
					<dim>1</dim>
					<dim>1</dim>
					<dim>1</dim>
				</port>
			</output>
		</layer>
		<layer id="135" name="4401440525770" type="Const" version="opset1">
			<data offset="3340" size="4" shape="1,1,1,1" element_type="f32"/>
			<output>
				<port id="0" precision="FP32">
					<dim>1</dim>
					<dim>1</dim>
					<dim>1</dim>
					<dim>1</dim>
				</port>
			</output>
		</layer>
		<layer id="136" name="4402440625305" type="Const" version="opset1">
			<data offset="3344" size="4" shape="1,1,1,1" element_type="f32"/>
			<output>
				<port id="0" precision="FP32">
					<dim>1</dim>
					<dim>1</dim>
					<dim>1</dim>
					<dim>1</dim>
				</port>
			</output>
		</layer>
		<layer id="137" name="4403440725908" type="Const" version="opset1">
			<data offset="3340" size="4" shape="1,1,1,1" element_type="f32"/>
			<output>
				<port id="0" precision="FP32">
					<dim>1</dim>
					<dim>1</dim>
					<dim>1</dim>
					<dim>1</dim>
				</port>
			</output>
		</layer>
		<layer id="138" name="4404440826085" type="Const" version="opset1">
			<data offset="3344" size="4" shape="1,1,1,1" element_type="f32"/>
			<output>
				<port id="0" precision="FP32">
					<dim>1</dim>
					<dim>1</dim>
					<dim>1</dim>
					<dim>1</dim>
				</port>
			</output>
		</layer>
		<layer id="139" name="3381338527312" type="Const" version="opset1">
			<data offset="3348" size="32" shape="1,8,1,1" element_type="f32"/>
			<output>
				<port id="0" precision="FP32">
					<dim>1</dim>
					<dim>8</dim>
					<dim>1</dim>
					<dim>1</dim>
				</port>
			</output>
		</layer>
		<layer id="140" name="3382338627306" type="Const" version="opset1">
			<data offset="3380" size="32" shape="1,8,1,1" element_type="f32"/>
			<output>
				<port id="0" precision="FP32">
					<dim>1</dim>
					<dim>8</dim>
					<dim>1</dim>
					<dim>1</dim>
				</port>
			</output>
		</layer>
		<layer id="141" name="3383338725722" type="Const" version="opset1">
			<data offset="3348" size="32" shape="1,8,1,1" element_type="f32"/>
			<output>
				<port id="0" precision="FP32">
					<dim>1</dim>
					<dim>8</dim>
					<dim>1</dim>
					<dim>1</dim>
				</port>
			</output>
		</layer>
		<layer id="142" name="3384338825833" type="Const" version="opset1">
			<data offset="3380" size="32" shape="1,8,1,1" element_type="f32"/>
			<output>
				<port id="0" precision="FP32">
					<dim>1</dim>
					<dim>8</dim>
					<dim>1</dim>
					<dim>1</dim>
				</port>
			</output>
		</layer>
		<layer id="143" name="bottleneck1_3/dim_red/conv/fq_weights_1/scale1504927408" type="Const" version="opset1">
			<data offset="3412" size="32" shape="8,1,1,1" element_type="f32"/>
			<output>
				<port id="0" precision="FP32">
					<dim>8</dim>
					<dim>1</dim>
					<dim>1</dim>
					<dim>1</dim>
				</port>
			</output>
		</layer>
		<layer id="144" name="bottleneck1_3/dim_red/bn/mean/Fused_Mul__copy79413263/quantized1504126457" type="Const" version="opset1">
			<data offset="3444" size="256" shape="8,32,1,1" element_type="i8"/>
			<output>
				<port id="0" precision="I8">
					<dim>8</dim>
					<dim>32</dim>
					<dim>1</dim>
					<dim>1</dim>
				</port>
			</output>
		</layer>
		<layer id="145" name="bottleneck1_3/dim_red/bn/mean/Fused_Mul__copy79413263/quantized/to_f32" type="Convert" version="opset1">
			<data destination_type="f32"/>
			<input>
				<port id="0">
					<dim>8</dim>
					<dim>32</dim>
					<dim>1</dim>
					<dim>1</dim>
				</port>
			</input>
			<output>
				<port id="1" precision="FP32">
					<dim>8</dim>
					<dim>32</dim>
					<dim>1</dim>
					<dim>1</dim>
				</port>
			</output>
		</layer>
		<layer id="146" name="bottleneck1_3/dim_red/conv/fq_weights_1/mulpiply_by_scale" type="Multiply" version="opset1">
			<data auto_broadcast="numpy"/>
			<input>
				<port id="0">
					<dim>8</dim>
					<dim>32</dim>
					<dim>1</dim>
					<dim>1</dim>
				</port>
				<port id="1">
					<dim>8</dim>
					<dim>1</dim>
					<dim>1</dim>
					<dim>1</dim>
				</port>
			</input>
			<output>
				<port id="2" precision="FP32">
					<dim>8</dim>
					<dim>32</dim>
					<dim>1</dim>
					<dim>1</dim>
				</port>
			</output>
		</layer>
		<layer id="147" name="bottleneck1_3/dim_red/conv" type="Convolution" version="opset1">
			<data auto_pad="explicit" strides="1,1" dilations="1,1" pads_begin="0,0" pads_end="0,0"/>
			<input>
				<port id="0">
					<dim>1</dim>
					<dim>32</dim>
					<dim>160</dim>
					<dim>272</dim>
				</port>
				<port id="1">
					<dim>8</dim>
					<dim>32</dim>
					<dim>1</dim>
					<dim>1</dim>
				</port>
			</input>
			<output>
				<port id="2" precision="FP32">
					<dim>1</dim>
					<dim>8</dim>
					<dim>160</dim>
					<dim>272</dim>
				</port>
			</output>
		</layer>
		<layer id="148" name="data_add_245052451079625914" type="Const" version="opset1">
			<data offset="3700" size="32" shape="1,8,1,1" element_type="f32"/>
			<output>
				<port id="0" precision="FP32">
					<dim>1</dim>
					<dim>8</dim>
					<dim>1</dim>
					<dim>1</dim>
				</port>
			</output>
		</layer>
		<layer id="149" name="bottleneck1_3/dim_red/bn/variance/Fused_Add_" type="Add" version="opset1">
			<data auto_broadcast="numpy"/>
			<input>
				<port id="0">
					<dim>1</dim>
					<dim>8</dim>
					<dim>160</dim>
					<dim>272</dim>
				</port>
				<port id="1">
					<dim>1</dim>
					<dim>8</dim>
					<dim>1</dim>
					<dim>1</dim>
				</port>
			</input>
			<output>
				<port id="2" precision="FP32" names="bottleneck1_3/dim_red/conv">
					<dim>1</dim>
					<dim>8</dim>
					<dim>160</dim>
					<dim>272</dim>
				</port>
			</output>
		</layer>
		<layer id="150" name="bottleneck1_3/dim_red/fn/weights3092840103798" type="Const" version="opset1">
			<data offset="1592" size="4" shape="1" element_type="f32"/>
			<output>
				<port id="0" precision="FP32">
					<dim>1</dim>
				</port>
			</output>
		</layer>
		<layer id="151" name="bottleneck1_3/dim_red/fn" type="PReLU" version="opset1">
			<input>
				<port id="0">
					<dim>1</dim>
					<dim>8</dim>
					<dim>160</dim>
					<dim>272</dim>
				</port>
				<port id="1">
					<dim>1</dim>
				</port>
			</input>
			<output>
				<port id="2" precision="FP32" names="bottleneck1_3/dim_red/conv">
					<dim>1</dim>
					<dim>8</dim>
					<dim>160</dim>
					<dim>272</dim>
				</port>
			</output>
		</layer>
		<layer id="152" name="bottleneck1_3/inner/dw1/conv/fq_input_0" type="FakeQuantize" version="opset1">
			<data levels="256" auto_broadcast="numpy"/>
			<input>
				<port id="0">
					<dim>1</dim>
					<dim>8</dim>
					<dim>160</dim>
					<dim>272</dim>
				</port>
				<port id="1">
					<dim>1</dim>
					<dim>8</dim>
					<dim>1</dim>
					<dim>1</dim>
				</port>
				<port id="2">
					<dim>1</dim>
					<dim>8</dim>
					<dim>1</dim>
					<dim>1</dim>
				</port>
				<port id="3">
					<dim>1</dim>
					<dim>8</dim>
					<dim>1</dim>
					<dim>1</dim>
				</port>
				<port id="4">
					<dim>1</dim>
					<dim>8</dim>
					<dim>1</dim>
					<dim>1</dim>
				</port>
			</input>
			<output>
				<port id="5" precision="FP32">
					<dim>1</dim>
					<dim>8</dim>
					<dim>160</dim>
					<dim>272</dim>
				</port>
			</output>
		</layer>
		<layer id="153" name="bottleneck1_3/inner/dw1/conv/weights_shape2163325143" type="Const" version="opset1">
			<data offset="1596" size="40" shape="5" element_type="i64"/>
			<output>
				<port id="0" precision="I64">
					<dim>5</dim>
				</port>
			</output>
		</layer>
		<layer id="154" name="bottleneck1_3/inner/dw1/conv/fq_weights_1/scale1648927666" type="Const" version="opset1">
			<data offset="3732" size="32" shape="8,1,1,1" element_type="f32"/>
			<output>
				<port id="0" precision="FP32">
					<dim>8</dim>
					<dim>1</dim>
					<dim>1</dim>
					<dim>1</dim>
				</port>
			</output>
		</layer>
		<layer id="155" name="bottleneck1_3/inner/dw1/bn/mean/Fused_Mul__copy80013266/quantized1648125281" type="Const" version="opset1">
			<data offset="3764" size="72" shape="8,1,3,3" element_type="i8"/>
			<output>
				<port id="0" precision="I8">
					<dim>8</dim>
					<dim>1</dim>
					<dim>3</dim>
					<dim>3</dim>
				</port>
			</output>
		</layer>
		<layer id="156" name="bottleneck1_3/inner/dw1/bn/mean/Fused_Mul__copy80013266/quantized/to_f32" type="Convert" version="opset1">
			<data destination_type="f32"/>
			<input>
				<port id="0">
					<dim>8</dim>
					<dim>1</dim>
					<dim>3</dim>
					<dim>3</dim>
				</port>
			</input>
			<output>
				<port id="1" precision="FP32">
					<dim>8</dim>
					<dim>1</dim>
					<dim>3</dim>
					<dim>3</dim>
				</port>
			</output>
		</layer>
		<layer id="157" name="bottleneck1_3/inner/dw1/conv/fq_weights_1/mulpiply_by_scale" type="Multiply" version="opset1">
			<data auto_broadcast="numpy"/>
			<input>
				<port id="0">
					<dim>8</dim>
					<dim>1</dim>
					<dim>3</dim>
					<dim>3</dim>
				</port>
				<port id="1">
					<dim>8</dim>
					<dim>1</dim>
					<dim>1</dim>
					<dim>1</dim>
				</port>
			</input>
			<output>
				<port id="2" precision="FP32">
					<dim>8</dim>
					<dim>1</dim>
					<dim>3</dim>
					<dim>3</dim>
				</port>
			</output>
		</layer>
		<layer id="158" name="21632" type="Reshape" version="opset1">
			<data special_zero="true"/>
			<input>
				<port id="0">
					<dim>8</dim>
					<dim>1</dim>
					<dim>3</dim>
					<dim>3</dim>
				</port>
				<port id="1">
					<dim>5</dim>
				</port>
			</input>
			<output>
				<port id="2" precision="FP32">
					<dim>8</dim>
					<dim>1</dim>
					<dim>1</dim>
					<dim>3</dim>
					<dim>3</dim>
				</port>
			</output>
		</layer>
		<layer id="159" name="bottleneck1_3/inner/dw1/conv" type="GroupConvolution" version="opset1">
			<data auto_pad="explicit" strides="1,1" dilations="1,1" pads_begin="1,1" pads_end="1,1"/>
			<input>
				<port id="0">
					<dim>1</dim>
					<dim>8</dim>
					<dim>160</dim>
					<dim>272</dim>
				</port>
				<port id="1">
					<dim>8</dim>
					<dim>1</dim>
					<dim>1</dim>
					<dim>3</dim>
					<dim>3</dim>
				</port>
			</input>
			<output>
				<port id="2" precision="FP32">
					<dim>1</dim>
					<dim>8</dim>
					<dim>160</dim>
					<dim>272</dim>
				</port>
			</output>
		</layer>
		<layer id="160" name="data_add_245132451880226223" type="Const" version="opset1">
			<data offset="3836" size="32" shape="1,8,1,1" element_type="f32"/>
			<output>
				<port id="0" precision="FP32">
					<dim>1</dim>
					<dim>8</dim>
					<dim>1</dim>
					<dim>1</dim>
				</port>
			</output>
		</layer>
		<layer id="161" name="bottleneck1_3/inner/dw1/bn/variance/Fused_Add_" type="Add" version="opset1">
			<data auto_broadcast="numpy"/>
			<input>
				<port id="0">
					<dim>1</dim>
					<dim>8</dim>
					<dim>160</dim>
					<dim>272</dim>
				</port>
				<port id="1">
					<dim>1</dim>
					<dim>8</dim>
					<dim>1</dim>
					<dim>1</dim>
				</port>
			</input>
			<output>
				<port id="2" precision="FP32" names="bottleneck1_3/inner/dw1/conv">
					<dim>1</dim>
					<dim>8</dim>
					<dim>160</dim>
					<dim>272</dim>
				</port>
			</output>
		</layer>
		<layer id="162" name="bottleneck1_3/inner/dw1/fn/weights3124440931804" type="Const" version="opset1">
			<data offset="1592" size="4" shape="1" element_type="f32"/>
			<output>
				<port id="0" precision="FP32">
					<dim>1</dim>
				</port>
			</output>
		</layer>
		<layer id="163" name="bottleneck1_3/inner/dw1/fn" type="PReLU" version="opset1">
			<input>
				<port id="0">
					<dim>1</dim>
					<dim>8</dim>
					<dim>160</dim>
					<dim>272</dim>
				</port>
				<port id="1">
					<dim>1</dim>
				</port>
			</input>
			<output>
				<port id="2" precision="FP32" names="bottleneck1_3/inner/dw1/conv">
					<dim>1</dim>
					<dim>8</dim>
					<dim>160</dim>
					<dim>272</dim>
				</port>
			</output>
		</layer>
		<layer id="164" name="bottleneck1_3/dim_inc/conv/fq_input_0" type="FakeQuantize" version="opset1">
			<data levels="256" auto_broadcast="numpy"/>
			<input>
				<port id="0">
					<dim>1</dim>
					<dim>8</dim>
					<dim>160</dim>
					<dim>272</dim>
				</port>
				<port id="1">
					<dim>1</dim>
					<dim>1</dim>
					<dim>1</dim>
					<dim>1</dim>
				</port>
				<port id="2">
					<dim>1</dim>
					<dim>1</dim>
					<dim>1</dim>
					<dim>1</dim>
				</port>
				<port id="3">
					<dim>1</dim>
					<dim>1</dim>
					<dim>1</dim>
					<dim>1</dim>
				</port>
				<port id="4">
					<dim>1</dim>
					<dim>1</dim>
					<dim>1</dim>
					<dim>1</dim>
				</port>
			</input>
			<output>
				<port id="5" precision="FP32">
					<dim>1</dim>
					<dim>8</dim>
					<dim>160</dim>
					<dim>272</dim>
				</port>
			</output>
		</layer>
		<layer id="165" name="bottleneck1_3/dim_inc/conv/fq_weights_1/scale1795925434" type="Const" version="opset1">
			<data offset="3868" size="128" shape="32,1,1,1" element_type="f32"/>
			<output>
				<port id="0" precision="FP32">
					<dim>32</dim>
					<dim>1</dim>
					<dim>1</dim>
					<dim>1</dim>
				</port>
			</output>
		</layer>
		<layer id="166" name="bottleneck1_3/dim_inc/bn/mean/Fused_Mul__copy80613269/quantized1795126295" type="Const" version="opset1">
			<data offset="3996" size="256" shape="32,8,1,1" element_type="i8"/>
			<output>
				<port id="0" precision="I8">
					<dim>32</dim>
					<dim>8</dim>
					<dim>1</dim>
					<dim>1</dim>
				</port>
			</output>
		</layer>
		<layer id="167" name="bottleneck1_3/dim_inc/bn/mean/Fused_Mul__copy80613269/quantized/to_f32" type="Convert" version="opset1">
			<data destination_type="f32"/>
			<input>
				<port id="0">
					<dim>32</dim>
					<dim>8</dim>
					<dim>1</dim>
					<dim>1</dim>
				</port>
			</input>
			<output>
				<port id="1" precision="FP32">
					<dim>32</dim>
					<dim>8</dim>
					<dim>1</dim>
					<dim>1</dim>
				</port>
			</output>
		</layer>
		<layer id="168" name="bottleneck1_3/dim_inc/conv/fq_weights_1/mulpiply_by_scale" type="Multiply" version="opset1">
			<data auto_broadcast="numpy"/>
			<input>
				<port id="0">
					<dim>32</dim>
					<dim>8</dim>
					<dim>1</dim>
					<dim>1</dim>
				</port>
				<port id="1">
					<dim>32</dim>
					<dim>1</dim>
					<dim>1</dim>
					<dim>1</dim>
				</port>
			</input>
			<output>
				<port id="2" precision="FP32">
					<dim>32</dim>
					<dim>8</dim>
					<dim>1</dim>
					<dim>1</dim>
				</port>
			</output>
		</layer>
		<layer id="169" name="bottleneck1_3/dim_inc/conv" type="Convolution" version="opset1">
			<data auto_pad="explicit" strides="1,1" dilations="1,1" pads_begin="0,0" pads_end="0,0"/>
			<input>
				<port id="0">
					<dim>1</dim>
					<dim>8</dim>
					<dim>160</dim>
					<dim>272</dim>
				</port>
				<port id="1">
					<dim>32</dim>
					<dim>8</dim>
					<dim>1</dim>
					<dim>1</dim>
				</port>
			</input>
			<output>
				<port id="2" precision="FP32">
					<dim>1</dim>
					<dim>32</dim>
					<dim>160</dim>
					<dim>272</dim>
				</port>
			</output>
		</layer>
		<layer id="170" name="data_add_245212452680826571" type="Const" version="opset1">
			<data offset="4252" size="128" shape="1,32,1,1" element_type="f32"/>
			<output>
				<port id="0" precision="FP32">
					<dim>1</dim>
					<dim>32</dim>
					<dim>1</dim>
					<dim>1</dim>
				</port>
			</output>
		</layer>
		<layer id="171" name="bottleneck1_3/dim_inc/bn/variance/Fused_Add_" type="Add" version="opset1">
			<data auto_broadcast="numpy"/>
			<input>
				<port id="0">
					<dim>1</dim>
					<dim>32</dim>
					<dim>160</dim>
					<dim>272</dim>
				</port>
				<port id="1">
					<dim>1</dim>
					<dim>32</dim>
					<dim>1</dim>
					<dim>1</dim>
				</port>
			</input>
			<output>
				<port id="2" precision="FP32" names="bottleneck1_3/dim_inc/conv">
					<dim>1</dim>
					<dim>32</dim>
					<dim>160</dim>
					<dim>272</dim>
				</port>
			</output>
		</layer>
		<layer id="172" name="bottleneck1_3/add/fq_input_1" type="FakeQuantize" version="opset1">
			<data levels="256" auto_broadcast="numpy"/>
			<input>
				<port id="0">
					<dim>1</dim>
					<dim>32</dim>
					<dim>160</dim>
					<dim>272</dim>
				</port>
				<port id="1">
					<dim>1</dim>
					<dim>1</dim>
					<dim>1</dim>
					<dim>1</dim>
				</port>
				<port id="2">
					<dim>1</dim>
					<dim>1</dim>
					<dim>1</dim>
					<dim>1</dim>
				</port>
				<port id="3">
					<dim>1</dim>
					<dim>1</dim>
					<dim>1</dim>
					<dim>1</dim>
				</port>
				<port id="4">
					<dim>1</dim>
					<dim>1</dim>
					<dim>1</dim>
					<dim>1</dim>
				</port>
			</input>
			<output>
				<port id="5" precision="FP32">
					<dim>1</dim>
					<dim>32</dim>
					<dim>160</dim>
					<dim>272</dim>
				</port>
			</output>
		</layer>
		<layer id="173" name="bottleneck1_3/add" type="Add" version="opset1">
			<data auto_broadcast="numpy"/>
			<input>
				<port id="0">
					<dim>1</dim>
					<dim>32</dim>
					<dim>160</dim>
					<dim>272</dim>
				</port>
				<port id="1">
					<dim>1</dim>
					<dim>32</dim>
					<dim>160</dim>
					<dim>272</dim>
				</port>
			</input>
			<output>
				<port id="2" precision="FP32" names="bottleneck1_3/add">
					<dim>1</dim>
					<dim>32</dim>
					<dim>160</dim>
					<dim>272</dim>
				</port>
			</output>
		</layer>
		<layer id="174" name="bottleneck1_3/fn/weights3085240316811" type="Const" version="opset1">
			<data offset="1592" size="4" shape="1" element_type="f32"/>
			<output>
				<port id="0" precision="FP32">
					<dim>1</dim>
				</port>
			</output>
		</layer>
		<layer id="175" name="bottleneck1_3/fn" type="PReLU" version="opset1">
			<input>
				<port id="0">
					<dim>1</dim>
					<dim>32</dim>
					<dim>160</dim>
					<dim>272</dim>
				</port>
				<port id="1">
					<dim>1</dim>
				</port>
			</input>
			<output>
				<port id="2" precision="FP32" names="bottleneck1_3/add">
					<dim>1</dim>
					<dim>32</dim>
					<dim>160</dim>
					<dim>272</dim>
				</port>
			</output>
		</layer>
		<layer id="176" name="bottleneck1_4/add/fq_input_0" type="FakeQuantize" version="opset1">
			<data levels="256" auto_broadcast="numpy"/>
			<input>
				<port id="0">
					<dim>1</dim>
					<dim>32</dim>
					<dim>160</dim>
					<dim>272</dim>
				</port>
				<port id="1">
					<dim>1</dim>
					<dim>1</dim>
					<dim>1</dim>
					<dim>1</dim>
				</port>
				<port id="2">
					<dim>1</dim>
					<dim>1</dim>
					<dim>1</dim>
					<dim>1</dim>
				</port>
				<port id="3">
					<dim>1</dim>
					<dim>1</dim>
					<dim>1</dim>
					<dim>1</dim>
				</port>
				<port id="4">
					<dim>1</dim>
					<dim>1</dim>
					<dim>1</dim>
					<dim>1</dim>
				</port>
			</input>
			<output>
				<port id="5" precision="FP32">
					<dim>1</dim>
					<dim>32</dim>
					<dim>160</dim>
					<dim>272</dim>
				</port>
			</output>
		</layer>
		<layer id="177" name="4871487525572" type="Const" version="opset1">
			<data offset="4380" size="4" shape="1,1,1,1" element_type="f32"/>
			<output>
				<port id="0" precision="FP32">
					<dim>1</dim>
					<dim>1</dim>
					<dim>1</dim>
					<dim>1</dim>
				</port>
			</output>
		</layer>
		<layer id="178" name="4872487627642" type="Const" version="opset1">
			<data offset="4384" size="4" shape="1,1,1,1" element_type="f32"/>
			<output>
				<port id="0" precision="FP32">
					<dim>1</dim>
					<dim>1</dim>
					<dim>1</dim>
					<dim>1</dim>
				</port>
			</output>
		</layer>
		<layer id="179" name="4873487725038" type="Const" version="opset1">
			<data offset="4380" size="4" shape="1,1,1,1" element_type="f32"/>
			<output>
				<port id="0" precision="FP32">
					<dim>1</dim>
					<dim>1</dim>
					<dim>1</dim>
					<dim>1</dim>
				</port>
			</output>
		</layer>
		<layer id="180" name="4874487827195" type="Const" version="opset1">
			<data offset="4384" size="4" shape="1,1,1,1" element_type="f32"/>
			<output>
				<port id="0" precision="FP32">
					<dim>1</dim>
					<dim>1</dim>
					<dim>1</dim>
					<dim>1</dim>
				</port>
			</output>
		</layer>
		<layer id="181" name="4841484526088" type="Const" version="opset1">
			<data offset="4388" size="4" shape="1,1,1,1" element_type="f32"/>
			<output>
				<port id="0" precision="FP32">
					<dim>1</dim>
					<dim>1</dim>
					<dim>1</dim>
					<dim>1</dim>
				</port>
			</output>
		</layer>
		<layer id="182" name="4842484624600" type="Const" version="opset1">
			<data offset="4392" size="4" shape="1,1,1,1" element_type="f32"/>
			<output>
				<port id="0" precision="FP32">
					<dim>1</dim>
					<dim>1</dim>
					<dim>1</dim>
					<dim>1</dim>
				</port>
			</output>
		</layer>
		<layer id="183" name="4843484724468" type="Const" version="opset1">
			<data offset="4388" size="4" shape="1,1,1,1" element_type="f32"/>
			<output>
				<port id="0" precision="FP32">
					<dim>1</dim>
					<dim>1</dim>
					<dim>1</dim>
					<dim>1</dim>
				</port>
			</output>
		</layer>
		<layer id="184" name="4844484826496" type="Const" version="opset1">
			<data offset="4392" size="4" shape="1,1,1,1" element_type="f32"/>
			<output>
				<port id="0" precision="FP32">
					<dim>1</dim>
					<dim>1</dim>
					<dim>1</dim>
					<dim>1</dim>
				</port>
			</output>
		</layer>
		<layer id="185" name="5381538526832" type="Const" version="opset1">
			<data offset="4396" size="32" shape="1,8,1,1" element_type="f32"/>
			<output>
				<port id="0" precision="FP32">
					<dim>1</dim>
					<dim>8</dim>
					<dim>1</dim>
					<dim>1</dim>
				</port>
			</output>
		</layer>
		<layer id="186" name="5382538626688" type="Const" version="opset1">
			<data offset="4428" size="32" shape="1,8,1,1" element_type="f32"/>
			<output>
				<port id="0" precision="FP32">
					<dim>1</dim>
					<dim>8</dim>
					<dim>1</dim>
					<dim>1</dim>
				</port>
			</output>
		</layer>
		<layer id="187" name="5383538724726" type="Const" version="opset1">
			<data offset="4396" size="32" shape="1,8,1,1" element_type="f32"/>
			<output>
				<port id="0" precision="FP32">
					<dim>1</dim>
					<dim>8</dim>
					<dim>1</dim>
					<dim>1</dim>
				</port>
			</output>
		</layer>
		<layer id="188" name="5384538824828" type="Const" version="opset1">
			<data offset="4428" size="32" shape="1,8,1,1" element_type="f32"/>
			<output>
				<port id="0" precision="FP32">
					<dim>1</dim>
					<dim>8</dim>
					<dim>1</dim>
					<dim>1</dim>
				</port>
			</output>
		</layer>
		<layer id="189" name="bottleneck1_4/dim_red/conv/fq_weights_1/scale1630927387" type="Const" version="opset1">
			<data offset="4460" size="32" shape="8,1,1,1" element_type="f32"/>
			<output>
				<port id="0" precision="FP32">
					<dim>8</dim>
					<dim>1</dim>
					<dim>1</dim>
					<dim>1</dim>
				</port>
			</output>
		</layer>
		<layer id="190" name="bottleneck1_4/dim_red/bn/mean/Fused_Mul__copy81313272/quantized1630125740" type="Const" version="opset1">
			<data offset="4492" size="256" shape="8,32,1,1" element_type="i8"/>
			<output>
				<port id="0" precision="I8">
					<dim>8</dim>
					<dim>32</dim>
					<dim>1</dim>
					<dim>1</dim>
				</port>
			</output>
		</layer>
		<layer id="191" name="bottleneck1_4/dim_red/bn/mean/Fused_Mul__copy81313272/quantized/to_f32" type="Convert" version="opset1">
			<data destination_type="f32"/>
			<input>
				<port id="0">
					<dim>8</dim>
					<dim>32</dim>
					<dim>1</dim>
					<dim>1</dim>
				</port>
			</input>
			<output>
				<port id="1" precision="FP32">
					<dim>8</dim>
					<dim>32</dim>
					<dim>1</dim>
					<dim>1</dim>
				</port>
			</output>
		</layer>
		<layer id="192" name="bottleneck1_4/dim_red/conv/fq_weights_1/mulpiply_by_scale" type="Multiply" version="opset1">
			<data auto_broadcast="numpy"/>
			<input>
				<port id="0">
					<dim>8</dim>
					<dim>32</dim>
					<dim>1</dim>
					<dim>1</dim>
				</port>
				<port id="1">
					<dim>8</dim>
					<dim>1</dim>
					<dim>1</dim>
					<dim>1</dim>
				</port>
			</input>
			<output>
				<port id="2" precision="FP32">
					<dim>8</dim>
					<dim>32</dim>
					<dim>1</dim>
					<dim>1</dim>
				</port>
			</output>
		</layer>
		<layer id="193" name="bottleneck1_4/dim_red/conv" type="Convolution" version="opset1">
			<data auto_pad="explicit" strides="1,1" dilations="1,1" pads_begin="0,0" pads_end="0,0"/>
			<input>
				<port id="0">
					<dim>1</dim>
					<dim>32</dim>
					<dim>160</dim>
					<dim>272</dim>
				</port>
				<port id="1">
					<dim>8</dim>
					<dim>32</dim>
					<dim>1</dim>
					<dim>1</dim>
				</port>
			</input>
			<output>
				<port id="2" precision="FP32">
					<dim>1</dim>
					<dim>8</dim>
					<dim>160</dim>
					<dim>272</dim>
				</port>
			</output>
		</layer>
		<layer id="194" name="data_add_245292453481526037" type="Const" version="opset1">
			<data offset="4748" size="32" shape="1,8,1,1" element_type="f32"/>
			<output>
				<port id="0" precision="FP32">
					<dim>1</dim>
					<dim>8</dim>
					<dim>1</dim>
					<dim>1</dim>
				</port>
			</output>
		</layer>
		<layer id="195" name="bottleneck1_4/dim_red/bn/variance/Fused_Add_" type="Add" version="opset1">
			<data auto_broadcast="numpy"/>
			<input>
				<port id="0">
					<dim>1</dim>
					<dim>8</dim>
					<dim>160</dim>
					<dim>272</dim>
				</port>
				<port id="1">
					<dim>1</dim>
					<dim>8</dim>
					<dim>1</dim>
					<dim>1</dim>
				</port>
			</input>
			<output>
				<port id="2" precision="FP32" names="bottleneck1_4/dim_red/conv">
					<dim>1</dim>
					<dim>8</dim>
					<dim>160</dim>
					<dim>272</dim>
				</port>
			</output>
		</layer>
		<layer id="196" name="bottleneck1_4/dim_red/fn/weights3101240451817" type="Const" version="opset1">
			<data offset="1592" size="4" shape="1" element_type="f32"/>
			<output>
				<port id="0" precision="FP32">
					<dim>1</dim>
				</port>
			</output>
		</layer>
		<layer id="197" name="bottleneck1_4/dim_red/fn" type="PReLU" version="opset1">
			<input>
				<port id="0">
					<dim>1</dim>
					<dim>8</dim>
					<dim>160</dim>
					<dim>272</dim>
				</port>
				<port id="1">
					<dim>1</dim>
				</port>
			</input>
			<output>
				<port id="2" precision="FP32" names="bottleneck1_4/dim_red/conv">
					<dim>1</dim>
					<dim>8</dim>
					<dim>160</dim>
					<dim>272</dim>
				</port>
			</output>
		</layer>
		<layer id="198" name="bottleneck1_4/inner/dw1/conv/fq_input_0" type="FakeQuantize" version="opset1">
			<data levels="256" auto_broadcast="numpy"/>
			<input>
				<port id="0">
					<dim>1</dim>
					<dim>8</dim>
					<dim>160</dim>
					<dim>272</dim>
				</port>
				<port id="1">
					<dim>1</dim>
					<dim>8</dim>
					<dim>1</dim>
					<dim>1</dim>
				</port>
				<port id="2">
					<dim>1</dim>
					<dim>8</dim>
					<dim>1</dim>
					<dim>1</dim>
				</port>
				<port id="3">
					<dim>1</dim>
					<dim>8</dim>
					<dim>1</dim>
					<dim>1</dim>
				</port>
				<port id="4">
					<dim>1</dim>
					<dim>8</dim>
					<dim>1</dim>
					<dim>1</dim>
				</port>
			</input>
			<output>
				<port id="5" precision="FP32">
					<dim>1</dim>
					<dim>8</dim>
					<dim>160</dim>
					<dim>272</dim>
				</port>
			</output>
		</layer>
		<layer id="199" name="bottleneck1_4/inner/dw1/conv/weights_shape2164724627" type="Const" version="opset1">
			<data offset="1596" size="40" shape="5" element_type="i64"/>
			<output>
				<port id="0" precision="I64">
					<dim>5</dim>
				</port>
			</output>
		</layer>
		<layer id="200" name="bottleneck1_4/inner/dw1/conv/fq_weights_1/scale1714925521" type="Const" version="opset1">
			<data offset="4780" size="32" shape="8,1,1,1" element_type="f32"/>
			<output>
				<port id="0" precision="FP32">
					<dim>8</dim>
					<dim>1</dim>
					<dim>1</dim>
					<dim>1</dim>
				</port>
			</output>
		</layer>
		<layer id="201" name="bottleneck1_4/inner/dw1/bn/mean/Fused_Mul__copy81913275/quantized1714126883" type="Const" version="opset1">
			<data offset="4812" size="72" shape="8,1,3,3" element_type="i8"/>
			<output>
				<port id="0" precision="I8">
					<dim>8</dim>
					<dim>1</dim>
					<dim>3</dim>
					<dim>3</dim>
				</port>
			</output>
		</layer>
		<layer id="202" name="bottleneck1_4/inner/dw1/bn/mean/Fused_Mul__copy81913275/quantized/to_f32" type="Convert" version="opset1">
			<data destination_type="f32"/>
			<input>
				<port id="0">
					<dim>8</dim>
					<dim>1</dim>
					<dim>3</dim>
					<dim>3</dim>
				</port>
			</input>
			<output>
				<port id="1" precision="FP32">
					<dim>8</dim>
					<dim>1</dim>
					<dim>3</dim>
					<dim>3</dim>
				</port>
			</output>
		</layer>
		<layer id="203" name="bottleneck1_4/inner/dw1/conv/fq_weights_1/mulpiply_by_scale" type="Multiply" version="opset1">
			<data auto_broadcast="numpy"/>
			<input>
				<port id="0">
					<dim>8</dim>
					<dim>1</dim>
					<dim>3</dim>
					<dim>3</dim>
				</port>
				<port id="1">
					<dim>8</dim>
					<dim>1</dim>
					<dim>1</dim>
					<dim>1</dim>
				</port>
			</input>
			<output>
				<port id="2" precision="FP32">
					<dim>8</dim>
					<dim>1</dim>
					<dim>3</dim>
					<dim>3</dim>
				</port>
			</output>
		</layer>
		<layer id="204" name="21646" type="Reshape" version="opset1">
			<data special_zero="true"/>
			<input>
				<port id="0">
					<dim>8</dim>
					<dim>1</dim>
					<dim>3</dim>
					<dim>3</dim>
				</port>
				<port id="1">
					<dim>5</dim>
				</port>
			</input>
			<output>
				<port id="2" precision="FP32">
					<dim>8</dim>
					<dim>1</dim>
					<dim>1</dim>
					<dim>3</dim>
					<dim>3</dim>
				</port>
			</output>
		</layer>
		<layer id="205" name="bottleneck1_4/inner/dw1/conv" type="GroupConvolution" version="opset1">
			<data auto_pad="explicit" strides="1,1" dilations="1,1" pads_begin="1,1" pads_end="1,1"/>
			<input>
				<port id="0">
					<dim>1</dim>
					<dim>8</dim>
					<dim>160</dim>
					<dim>272</dim>
				</port>
				<port id="1">
					<dim>8</dim>
					<dim>1</dim>
					<dim>1</dim>
					<dim>3</dim>
					<dim>3</dim>
				</port>
			</input>
			<output>
				<port id="2" precision="FP32">
					<dim>1</dim>
					<dim>8</dim>
					<dim>160</dim>
					<dim>272</dim>
				</port>
			</output>
		</layer>
		<layer id="206" name="data_add_245372454282125878" type="Const" version="opset1">
			<data offset="4884" size="32" shape="1,8,1,1" element_type="f32"/>
			<output>
				<port id="0" precision="FP32">
					<dim>1</dim>
					<dim>8</dim>
					<dim>1</dim>
					<dim>1</dim>
				</port>
			</output>
		</layer>
		<layer id="207" name="bottleneck1_4/inner/dw1/bn/variance/Fused_Add_" type="Add" version="opset1">
			<data auto_broadcast="numpy"/>
			<input>
				<port id="0">
					<dim>1</dim>
					<dim>8</dim>
					<dim>160</dim>
					<dim>272</dim>
				</port>
				<port id="1">
					<dim>1</dim>
					<dim>8</dim>
					<dim>1</dim>
					<dim>1</dim>
				</port>
			</input>
			<output>
				<port id="2" precision="FP32" names="bottleneck1_4/inner/dw1/conv">
					<dim>1</dim>
					<dim>8</dim>
					<dim>160</dim>
					<dim>272</dim>
				</port>
			</output>
		</layer>
		<layer id="208" name="bottleneck1_4/inner/dw1/fn/weights3095240022823" type="Const" version="opset1">
			<data offset="1592" size="4" shape="1" element_type="f32"/>
			<output>
				<port id="0" precision="FP32">
					<dim>1</dim>
				</port>
			</output>
		</layer>
		<layer id="209" name="bottleneck1_4/inner/dw1/fn" type="PReLU" version="opset1">
			<input>
				<port id="0">
					<dim>1</dim>
					<dim>8</dim>
					<dim>160</dim>
					<dim>272</dim>
				</port>
				<port id="1">
					<dim>1</dim>
				</port>
			</input>
			<output>
				<port id="2" precision="FP32" names="bottleneck1_4/inner/dw1/conv">
					<dim>1</dim>
					<dim>8</dim>
					<dim>160</dim>
					<dim>272</dim>
				</port>
			</output>
		</layer>
		<layer id="210" name="bottleneck1_4/dim_inc/conv/fq_input_0" type="FakeQuantize" version="opset1">
			<data levels="256" auto_broadcast="numpy"/>
			<input>
				<port id="0">
					<dim>1</dim>
					<dim>8</dim>
					<dim>160</dim>
					<dim>272</dim>
				</port>
				<port id="1">
					<dim>1</dim>
					<dim>1</dim>
					<dim>1</dim>
					<dim>1</dim>
				</port>
				<port id="2">
					<dim>1</dim>
					<dim>1</dim>
					<dim>1</dim>
					<dim>1</dim>
				</port>
				<port id="3">
					<dim>1</dim>
					<dim>1</dim>
					<dim>1</dim>
					<dim>1</dim>
				</port>
				<port id="4">
					<dim>1</dim>
					<dim>1</dim>
					<dim>1</dim>
					<dim>1</dim>
				</port>
			</input>
			<output>
				<port id="5" precision="FP32">
					<dim>1</dim>
					<dim>8</dim>
					<dim>160</dim>
					<dim>272</dim>
				</port>
			</output>
		</layer>
		<layer id="211" name="bottleneck1_4/dim_inc/conv/fq_weights_1/scale1804924711" type="Const" version="opset1">
			<data offset="4916" size="128" shape="32,1,1,1" element_type="f32"/>
			<output>
				<port id="0" precision="FP32">
					<dim>32</dim>
					<dim>1</dim>
					<dim>1</dim>
					<dim>1</dim>
				</port>
			</output>
		</layer>
		<layer id="212" name="bottleneck1_4/dim_inc/bn/mean/Fused_Mul__copy82513278/quantized1804126994" type="Const" version="opset1">
			<data offset="5044" size="256" shape="32,8,1,1" element_type="i8"/>
			<output>
				<port id="0" precision="I8">
					<dim>32</dim>
					<dim>8</dim>
					<dim>1</dim>
					<dim>1</dim>
				</port>
			</output>
		</layer>
		<layer id="213" name="bottleneck1_4/dim_inc/bn/mean/Fused_Mul__copy82513278/quantized/to_f32" type="Convert" version="opset1">
			<data destination_type="f32"/>
			<input>
				<port id="0">
					<dim>32</dim>
					<dim>8</dim>
					<dim>1</dim>
					<dim>1</dim>
				</port>
			</input>
			<output>
				<port id="1" precision="FP32">
					<dim>32</dim>
					<dim>8</dim>
					<dim>1</dim>
					<dim>1</dim>
				</port>
			</output>
		</layer>
		<layer id="214" name="bottleneck1_4/dim_inc/conv/fq_weights_1/mulpiply_by_scale" type="Multiply" version="opset1">
			<data auto_broadcast="numpy"/>
			<input>
				<port id="0">
					<dim>32</dim>
					<dim>8</dim>
					<dim>1</dim>
					<dim>1</dim>
				</port>
				<port id="1">
					<dim>32</dim>
					<dim>1</dim>
					<dim>1</dim>
					<dim>1</dim>
				</port>
			</input>
			<output>
				<port id="2" precision="FP32">
					<dim>32</dim>
					<dim>8</dim>
					<dim>1</dim>
					<dim>1</dim>
				</port>
			</output>
		</layer>
		<layer id="215" name="bottleneck1_4/dim_inc/conv" type="Convolution" version="opset1">
			<data auto_pad="explicit" strides="1,1" dilations="1,1" pads_begin="0,0" pads_end="0,0"/>
			<input>
				<port id="0">
					<dim>1</dim>
					<dim>8</dim>
					<dim>160</dim>
					<dim>272</dim>
				</port>
				<port id="1">
					<dim>32</dim>
					<dim>8</dim>
					<dim>1</dim>
					<dim>1</dim>
				</port>
			</input>
			<output>
				<port id="2" precision="FP32">
					<dim>1</dim>
					<dim>32</dim>
					<dim>160</dim>
					<dim>272</dim>
				</port>
			</output>
		</layer>
		<layer id="216" name="data_add_245452455082726133" type="Const" version="opset1">
			<data offset="5300" size="128" shape="1,32,1,1" element_type="f32"/>
			<output>
				<port id="0" precision="FP32">
					<dim>1</dim>
					<dim>32</dim>
					<dim>1</dim>
					<dim>1</dim>
				</port>
			</output>
		</layer>
		<layer id="217" name="bottleneck1_4/dim_inc/bn/variance/Fused_Add_" type="Add" version="opset1">
			<data auto_broadcast="numpy"/>
			<input>
				<port id="0">
					<dim>1</dim>
					<dim>32</dim>
					<dim>160</dim>
					<dim>272</dim>
				</port>
				<port id="1">
					<dim>1</dim>
					<dim>32</dim>
					<dim>1</dim>
					<dim>1</dim>
				</port>
			</input>
			<output>
				<port id="2" precision="FP32" names="bottleneck1_4/dim_inc/conv">
					<dim>1</dim>
					<dim>32</dim>
					<dim>160</dim>
					<dim>272</dim>
				</port>
			</output>
		</layer>
		<layer id="218" name="bottleneck1_4/add/fq_input_1" type="FakeQuantize" version="opset1">
			<data levels="256" auto_broadcast="numpy"/>
			<input>
				<port id="0">
					<dim>1</dim>
					<dim>32</dim>
					<dim>160</dim>
					<dim>272</dim>
				</port>
				<port id="1">
					<dim>1</dim>
					<dim>1</dim>
					<dim>1</dim>
					<dim>1</dim>
				</port>
				<port id="2">
					<dim>1</dim>
					<dim>1</dim>
					<dim>1</dim>
					<dim>1</dim>
				</port>
				<port id="3">
					<dim>1</dim>
					<dim>1</dim>
					<dim>1</dim>
					<dim>1</dim>
				</port>
				<port id="4">
					<dim>1</dim>
					<dim>1</dim>
					<dim>1</dim>
					<dim>1</dim>
				</port>
			</input>
			<output>
				<port id="5" precision="FP32">
					<dim>1</dim>
					<dim>32</dim>
					<dim>160</dim>
					<dim>272</dim>
				</port>
			</output>
		</layer>
		<layer id="219" name="bottleneck1_4/add" type="Add" version="opset1">
			<data auto_broadcast="numpy"/>
			<input>
				<port id="0">
					<dim>1</dim>
					<dim>32</dim>
					<dim>160</dim>
					<dim>272</dim>
				</port>
				<port id="1">
					<dim>1</dim>
					<dim>32</dim>
					<dim>160</dim>
					<dim>272</dim>
				</port>
			</input>
			<output>
				<port id="2" precision="FP32" names="bottleneck1_4/add">
					<dim>1</dim>
					<dim>32</dim>
					<dim>160</dim>
					<dim>272</dim>
				</port>
			</output>
		</layer>
		<layer id="220" name="bottleneck1_4/fn/weights3086840301830" type="Const" version="opset1">
			<data offset="1592" size="4" shape="1" element_type="f32"/>
			<output>
				<port id="0" precision="FP32">
					<dim>1</dim>
				</port>
			</output>
		</layer>
		<layer id="221" name="bottleneck1_4/fn" type="PReLU" version="opset1">
			<input>
				<port id="0">
					<dim>1</dim>
					<dim>32</dim>
					<dim>160</dim>
					<dim>272</dim>
				</port>
				<port id="1">
					<dim>1</dim>
				</port>
			</input>
			<output>
				<port id="2" precision="FP32" names="bottleneck1_4/add">
					<dim>1</dim>
					<dim>32</dim>
					<dim>160</dim>
					<dim>272</dim>
				</port>
			</output>
		</layer>
		<layer id="222" name="bottleneck2_0/dim_red/conv/fq_input_0" type="FakeQuantize" version="opset1">
			<data levels="256" auto_broadcast="numpy"/>
			<input>
				<port id="0">
					<dim>1</dim>
					<dim>32</dim>
					<dim>160</dim>
					<dim>272</dim>
				</port>
				<port id="1">
					<dim>1</dim>
					<dim>1</dim>
					<dim>1</dim>
					<dim>1</dim>
				</port>
				<port id="2">
					<dim>1</dim>
					<dim>1</dim>
					<dim>1</dim>
					<dim>1</dim>
				</port>
				<port id="3">
					<dim>1</dim>
					<dim>1</dim>
					<dim>1</dim>
					<dim>1</dim>
				</port>
				<port id="4">
					<dim>1</dim>
					<dim>1</dim>
					<dim>1</dim>
					<dim>1</dim>
				</port>
			</input>
			<output>
				<port id="5" precision="FP32">
					<dim>1</dim>
					<dim>32</dim>
					<dim>160</dim>
					<dim>272</dim>
				</port>
			</output>
		</layer>
		<layer id="223" name="bottleneck2_0/skip/pooling" type="MaxPool" version="opset8">
			<data strides="2,2" kernel="2,2" pads_begin="0,0" pads_end="0,0" rounding_type="ceil" auto_pad="explicit" dilations="1,1" axis="0" index_element_type="i64"/>
			<input>
				<port id="0">
					<dim>1</dim>
					<dim>32</dim>
					<dim>160</dim>
					<dim>272</dim>
				</port>
			</input>
			<output>
				<port id="1" precision="FP32" names="bottleneck2_0/skip/pooling">
					<dim>1</dim>
					<dim>32</dim>
					<dim>80</dim>
					<dim>136</dim>
				</port>
				<port id="2" precision="FP32">
					<dim>1</dim>
					<dim>32</dim>
					<dim>80</dim>
					<dim>136</dim>
					<rt_info/>
				</port>
			</output>
		</layer>
		<layer id="225" name="5221522524714" type="Const" version="opset1">
			<data offset="5428" size="4" shape="1,1,1,1" element_type="f32"/>
			<output>
				<port id="0" precision="FP32">
					<dim>1</dim>
					<dim>1</dim>
					<dim>1</dim>
					<dim>1</dim>
				</port>
			</output>
		</layer>
		<layer id="226" name="5222522625566" type="Const" version="opset1">
			<data offset="5432" size="4" shape="1,1,1,1" element_type="f32"/>
			<output>
				<port id="0" precision="FP32">
					<dim>1</dim>
					<dim>1</dim>
					<dim>1</dim>
					<dim>1</dim>
				</port>
			</output>
		</layer>
		<layer id="227" name="5223522724645" type="Const" version="opset1">
			<data offset="5428" size="4" shape="1,1,1,1" element_type="f32"/>
			<output>
				<port id="0" precision="FP32">
					<dim>1</dim>
					<dim>1</dim>
					<dim>1</dim>
					<dim>1</dim>
				</port>
			</output>
		</layer>
		<layer id="228" name="5224522825350" type="Const" version="opset1">
			<data offset="5432" size="4" shape="1,1,1,1" element_type="f32"/>
			<output>
				<port id="0" precision="FP32">
					<dim>1</dim>
					<dim>1</dim>
					<dim>1</dim>
					<dim>1</dim>
				</port>
			</output>
		</layer>
		<layer id="229" name="3781378525824" type="Const" version="opset1">
			<data offset="5436" size="4" shape="1,1,1,1" element_type="f32"/>
			<output>
				<port id="0" precision="FP32">
					<dim>1</dim>
					<dim>1</dim>
					<dim>1</dim>
					<dim>1</dim>
				</port>
			</output>
		</layer>
		<layer id="230" name="3782378626406" type="Const" version="opset1">
			<data offset="5440" size="4" shape="1,1,1,1" element_type="f32"/>
			<output>
				<port id="0" precision="FP32">
					<dim>1</dim>
					<dim>1</dim>
					<dim>1</dim>
					<dim>1</dim>
				</port>
			</output>
		</layer>
		<layer id="231" name="3783378725047" type="Const" version="opset1">
			<data offset="5436" size="4" shape="1,1,1,1" element_type="f32"/>
			<output>
				<port id="0" precision="FP32">
					<dim>1</dim>
					<dim>1</dim>
					<dim>1</dim>
					<dim>1</dim>
				</port>
			</output>
		</layer>
		<layer id="232" name="3784378824660" type="Const" version="opset1">
			<data offset="5440" size="4" shape="1,1,1,1" element_type="f32"/>
			<output>
				<port id="0" precision="FP32">
					<dim>1</dim>
					<dim>1</dim>
					<dim>1</dim>
					<dim>1</dim>
				</port>
			</output>
		</layer>
		<layer id="233" name="2961296525656" type="Const" version="opset1">
			<data offset="5444" size="4" shape="1,1,1,1" element_type="f32"/>
			<output>
				<port id="0" precision="FP32">
					<dim>1</dim>
					<dim>1</dim>
					<dim>1</dim>
					<dim>1</dim>
				</port>
			</output>
		</layer>
		<layer id="234" name="2962296627084" type="Const" version="opset1">
			<data offset="5448" size="4" shape="1,1,1,1" element_type="f32"/>
			<output>
				<port id="0" precision="FP32">
					<dim>1</dim>
					<dim>1</dim>
					<dim>1</dim>
					<dim>1</dim>
				</port>
			</output>
		</layer>
		<layer id="235" name="2963296726649" type="Const" version="opset1">
			<data offset="5444" size="4" shape="1,1,1,1" element_type="f32"/>
			<output>
				<port id="0" precision="FP32">
					<dim>1</dim>
					<dim>1</dim>
					<dim>1</dim>
					<dim>1</dim>
				</port>
			</output>
		</layer>
		<layer id="236" name="2964296826373" type="Const" version="opset1">
			<data offset="5448" size="4" shape="1,1,1,1" element_type="f32"/>
			<output>
				<port id="0" precision="FP32">
					<dim>1</dim>
					<dim>1</dim>
					<dim>1</dim>
					<dim>1</dim>
				</port>
			</output>
		</layer>
		<layer id="237" name="3121312525026" type="Const" version="opset1">
			<data offset="5452" size="4" shape="1,1,1,1" element_type="f32"/>
			<output>
				<port id="0" precision="FP32">
					<dim>1</dim>
					<dim>1</dim>
					<dim>1</dim>
					<dim>1</dim>
				</port>
			</output>
		</layer>
		<layer id="238" name="3122312625686" type="Const" version="opset1">
			<data offset="5456" size="4" shape="1,1,1,1" element_type="f32"/>
			<output>
				<port id="0" precision="FP32">
					<dim>1</dim>
					<dim>1</dim>
					<dim>1</dim>
					<dim>1</dim>
				</port>
			</output>
		</layer>
		<layer id="239" name="3123312724579" type="Const" version="opset1">
			<data offset="5452" size="4" shape="1,1,1,1" element_type="f32"/>
			<output>
				<port id="0" precision="FP32">
					<dim>1</dim>
					<dim>1</dim>
					<dim>1</dim>
					<dim>1</dim>
				</port>
			</output>
		</layer>
		<layer id="240" name="3124312825443" type="Const" version="opset1">
			<data offset="5456" size="4" shape="1,1,1,1" element_type="f32"/>
			<output>
				<port id="0" precision="FP32">
					<dim>1</dim>
					<dim>1</dim>
					<dim>1</dim>
					<dim>1</dim>
				</port>
			</output>
		</layer>
		<layer id="241" name="5601560526067" type="Const" version="opset1">
			<data offset="5460" size="4" shape="1,1,1,1" element_type="f32"/>
			<output>
				<port id="0" precision="FP32">
					<dim>1</dim>
					<dim>1</dim>
					<dim>1</dim>
					<dim>1</dim>
				</port>
			</output>
		</layer>
		<layer id="242" name="5602560627441" type="Const" version="opset1">
			<data offset="5464" size="4" shape="1,1,1,1" element_type="f32"/>
			<output>
				<port id="0" precision="FP32">
					<dim>1</dim>
					<dim>1</dim>
					<dim>1</dim>
					<dim>1</dim>
				</port>
			</output>
		</layer>
		<layer id="243" name="5603560725014" type="Const" version="opset1">
			<data offset="5460" size="4" shape="1,1,1,1" element_type="f32"/>
			<output>
				<port id="0" precision="FP32">
					<dim>1</dim>
					<dim>1</dim>
					<dim>1</dim>
					<dim>1</dim>
				</port>
			</output>
		</layer>
		<layer id="244" name="5604560826490" type="Const" version="opset1">
			<data offset="5464" size="4" shape="1,1,1,1" element_type="f32"/>
			<output>
				<port id="0" precision="FP32">
					<dim>1</dim>
					<dim>1</dim>
					<dim>1</dim>
					<dim>1</dim>
				</port>
			</output>
		</layer>
		<layer id="245" name="3141314524729" type="Const" version="opset1">
			<data offset="5468" size="4" shape="1,1,1,1" element_type="f32"/>
			<output>
				<port id="0" precision="FP32">
					<dim>1</dim>
					<dim>1</dim>
					<dim>1</dim>
					<dim>1</dim>
				</port>
			</output>
		</layer>
		<layer id="246" name="3142314625197" type="Const" version="opset1">
			<data offset="5472" size="4" shape="1,1,1,1" element_type="f32"/>
			<output>
				<port id="0" precision="FP32">
					<dim>1</dim>
					<dim>1</dim>
					<dim>1</dim>
					<dim>1</dim>
				</port>
			</output>
		</layer>
		<layer id="247" name="3143314726730" type="Const" version="opset1">
			<data offset="5468" size="4" shape="1,1,1,1" element_type="f32"/>
			<output>
				<port id="0" precision="FP32">
					<dim>1</dim>
					<dim>1</dim>
					<dim>1</dim>
					<dim>1</dim>
				</port>
			</output>
		</layer>
		<layer id="248" name="3144314825893" type="Const" version="opset1">
			<data offset="5472" size="4" shape="1,1,1,1" element_type="f32"/>
			<output>
				<port id="0" precision="FP32">
					<dim>1</dim>
					<dim>1</dim>
					<dim>1</dim>
					<dim>1</dim>
				</port>
			</output>
		</layer>
		<layer id="249" name="3881388524900" type="Const" version="opset1">
			<data offset="5476" size="4" shape="1,1,1,1" element_type="f32"/>
			<output>
				<port id="0" precision="FP32">
					<dim>1</dim>
					<dim>1</dim>
					<dim>1</dim>
					<dim>1</dim>
				</port>
			</output>
		</layer>
		<layer id="250" name="3882388626895" type="Const" version="opset1">
			<data offset="5480" size="4" shape="1,1,1,1" element_type="f32"/>
			<output>
				<port id="0" precision="FP32">
					<dim>1</dim>
					<dim>1</dim>
					<dim>1</dim>
					<dim>1</dim>
				</port>
			</output>
		</layer>
		<layer id="251" name="3883388725536" type="Const" version="opset1">
			<data offset="5476" size="4" shape="1,1,1,1" element_type="f32"/>
			<output>
				<port id="0" precision="FP32">
					<dim>1</dim>
					<dim>1</dim>
					<dim>1</dim>
					<dim>1</dim>
				</port>
			</output>
		</layer>
		<layer id="252" name="3884388827606" type="Const" version="opset1">
			<data offset="5480" size="4" shape="1,1,1,1" element_type="f32"/>
			<output>
				<port id="0" precision="FP32">
					<dim>1</dim>
					<dim>1</dim>
					<dim>1</dim>
					<dim>1</dim>
				</port>
			</output>
		</layer>
		<layer id="253" name="4301430527498" type="Const" version="opset1">
			<data offset="5484" size="4" shape="1,1,1,1" element_type="f32"/>
			<output>
				<port id="0" precision="FP32">
					<dim>1</dim>
					<dim>1</dim>
					<dim>1</dim>
					<dim>1</dim>
				</port>
			</output>
		</layer>
		<layer id="254" name="4302430626991" type="Const" version="opset1">
			<data offset="5488" size="4" shape="1,1,1,1" element_type="f32"/>
			<output>
				<port id="0" precision="FP32">
					<dim>1</dim>
					<dim>1</dim>
					<dim>1</dim>
					<dim>1</dim>
				</port>
			</output>
		</layer>
		<layer id="255" name="4303430726946" type="Const" version="opset1">
			<data offset="5484" size="4" shape="1,1,1,1" element_type="f32"/>
			<output>
				<port id="0" precision="FP32">
					<dim>1</dim>
					<dim>1</dim>
					<dim>1</dim>
					<dim>1</dim>
				</port>
			</output>
		</layer>
		<layer id="256" name="4304430826718" type="Const" version="opset1">
			<data offset="5488" size="4" shape="1,1,1,1" element_type="f32"/>
			<output>
				<port id="0" precision="FP32">
					<dim>1</dim>
					<dim>1</dim>
					<dim>1</dim>
					<dim>1</dim>
				</port>
			</output>
		</layer>
		<layer id="257" name="5881588527537" type="Const" version="opset1">
			<data offset="5492" size="4" shape="1,1,1,1" element_type="f32"/>
			<output>
				<port id="0" precision="FP32">
					<dim>1</dim>
					<dim>1</dim>
					<dim>1</dim>
					<dim>1</dim>
				</port>
			</output>
		</layer>
		<layer id="258" name="5882588626424" type="Const" version="opset1">
			<data offset="5496" size="4" shape="1,1,1,1" element_type="f32"/>
			<output>
				<port id="0" precision="FP32">
					<dim>1</dim>
					<dim>1</dim>
					<dim>1</dim>
					<dim>1</dim>
				</port>
			</output>
		</layer>
		<layer id="259" name="5883588726448" type="Const" version="opset1">
			<data offset="5492" size="4" shape="1,1,1,1" element_type="f32"/>
			<output>
				<port id="0" precision="FP32">
					<dim>1</dim>
					<dim>1</dim>
					<dim>1</dim>
					<dim>1</dim>
				</port>
			</output>
		</layer>
		<layer id="260" name="5884588826985" type="Const" version="opset1">
			<data offset="5496" size="4" shape="1,1,1,1" element_type="f32"/>
			<output>
				<port id="0" precision="FP32">
					<dim>1</dim>
					<dim>1</dim>
					<dim>1</dim>
					<dim>1</dim>
				</port>
			</output>
		</layer>
		<layer id="261" name="3601360524708" type="Const" version="opset1">
			<data offset="5500" size="4" shape="1,1,1,1" element_type="f32"/>
			<output>
				<port id="0" precision="FP32">
					<dim>1</dim>
					<dim>1</dim>
					<dim>1</dim>
					<dim>1</dim>
				</port>
			</output>
		</layer>
		<layer id="262" name="3602360626736" type="Const" version="opset1">
			<data offset="5504" size="4" shape="1,1,1,1" element_type="f32"/>
			<output>
				<port id="0" precision="FP32">
					<dim>1</dim>
					<dim>1</dim>
					<dim>1</dim>
					<dim>1</dim>
				</port>
			</output>
		</layer>
		<layer id="263" name="3603360726430" type="Const" version="opset1">
			<data offset="5500" size="4" shape="1,1,1,1" element_type="f32"/>
			<output>
				<port id="0" precision="FP32">
					<dim>1</dim>
					<dim>1</dim>
					<dim>1</dim>
					<dim>1</dim>
				</port>
			</output>
		</layer>
		<layer id="264" name="3604360827435" type="Const" version="opset1">
			<data offset="5504" size="4" shape="1,1,1,1" element_type="f32"/>
			<output>
				<port id="0" precision="FP32">
					<dim>1</dim>
					<dim>1</dim>
					<dim>1</dim>
					<dim>1</dim>
				</port>
			</output>
		</layer>
		<layer id="265" name="bottleneck2_0/skip/conv/fq_weights_1/scale1465925848" type="Const" version="opset1">
			<data offset="5508" size="256" shape="64,1,1,1" element_type="f32"/>
			<output>
				<port id="0" precision="FP32">
					<dim>64</dim>
					<dim>1</dim>
					<dim>1</dim>
					<dim>1</dim>
				</port>
			</output>
		</layer>
		<layer id="266" name="bottleneck2_0/skip/bn/mean/Fused_Mul__copy83313281/quantized1465126517" type="Const" version="opset1">
			<data offset="5764" size="2048" shape="64,32,1,1" element_type="i8"/>
			<output>
				<port id="0" precision="I8">
					<dim>64</dim>
					<dim>32</dim>
					<dim>1</dim>
					<dim>1</dim>
				</port>
			</output>
		</layer>
		<layer id="267" name="bottleneck2_0/skip/bn/mean/Fused_Mul__copy83313281/quantized/to_f32" type="Convert" version="opset1">
			<data destination_type="f32"/>
			<input>
				<port id="0">
					<dim>64</dim>
					<dim>32</dim>
					<dim>1</dim>
					<dim>1</dim>
				</port>
			</input>
			<output>
				<port id="1" precision="FP32">
					<dim>64</dim>
					<dim>32</dim>
					<dim>1</dim>
					<dim>1</dim>
				</port>
			</output>
		</layer>
		<layer id="268" name="bottleneck2_0/skip/conv/fq_weights_1/mulpiply_by_scale" type="Multiply" version="opset1">
			<data auto_broadcast="numpy"/>
			<input>
				<port id="0">
					<dim>64</dim>
					<dim>32</dim>
					<dim>1</dim>
					<dim>1</dim>
				</port>
				<port id="1">
					<dim>64</dim>
					<dim>1</dim>
					<dim>1</dim>
					<dim>1</dim>
				</port>
			</input>
			<output>
				<port id="2" precision="FP32">
					<dim>64</dim>
					<dim>32</dim>
					<dim>1</dim>
					<dim>1</dim>
				</port>
			</output>
		</layer>
		<layer id="269" name="bottleneck2_0/skip/conv" type="Convolution" version="opset1">
			<data auto_pad="explicit" strides="1,1" dilations="1,1" pads_begin="0,0" pads_end="0,0"/>
			<input>
				<port id="0">
					<dim>1</dim>
					<dim>32</dim>
					<dim>80</dim>
					<dim>136</dim>
				</port>
				<port id="1">
					<dim>64</dim>
					<dim>32</dim>
					<dim>1</dim>
					<dim>1</dim>
				</port>
			</input>
			<output>
				<port id="2" precision="FP32">
					<dim>1</dim>
					<dim>64</dim>
					<dim>80</dim>
					<dim>136</dim>
				</port>
			</output>
		</layer>
		<layer id="270" name="data_add_245532455883525392" type="Const" version="opset1">
			<data offset="7812" size="256" shape="1,64,1,1" element_type="f32"/>
			<output>
				<port id="0" precision="FP32">
					<dim>1</dim>
					<dim>64</dim>
					<dim>1</dim>
					<dim>1</dim>
				</port>
			</output>
		</layer>
		<layer id="271" name="bottleneck2_0/skip/bn/variance/Fused_Add_" type="Add" version="opset1">
			<data auto_broadcast="numpy"/>
			<input>
				<port id="0">
					<dim>1</dim>
					<dim>64</dim>
					<dim>80</dim>
					<dim>136</dim>
				</port>
				<port id="1">
					<dim>1</dim>
					<dim>64</dim>
					<dim>1</dim>
					<dim>1</dim>
				</port>
			</input>
			<output>
				<port id="2" precision="FP32" names="bottleneck2_0/skip/conv">
					<dim>1</dim>
					<dim>64</dim>
					<dim>80</dim>
					<dim>136</dim>
				</port>
			</output>
		</layer>
		<layer id="272" name="bottleneck2_0/add/fq_input_0" type="FakeQuantize" version="opset1">
			<data levels="256" auto_broadcast="numpy"/>
			<input>
				<port id="0">
					<dim>1</dim>
					<dim>64</dim>
					<dim>80</dim>
					<dim>136</dim>
				</port>
				<port id="1">
					<dim>1</dim>
					<dim>1</dim>
					<dim>1</dim>
					<dim>1</dim>
				</port>
				<port id="2">
					<dim>1</dim>
					<dim>1</dim>
					<dim>1</dim>
					<dim>1</dim>
				</port>
				<port id="3">
					<dim>1</dim>
					<dim>1</dim>
					<dim>1</dim>
					<dim>1</dim>
				</port>
				<port id="4">
					<dim>1</dim>
					<dim>1</dim>
					<dim>1</dim>
					<dim>1</dim>
				</port>
			</input>
			<output>
				<port id="5" precision="FP32">
					<dim>1</dim>
					<dim>64</dim>
					<dim>80</dim>
					<dim>136</dim>
				</port>
			</output>
		</layer>
		<layer id="273" name="3611361524501" type="Const" version="opset1">
			<data offset="8068" size="4" shape="1,1,1,1" element_type="f32"/>
			<output>
				<port id="0" precision="FP32">
					<dim>1</dim>
					<dim>1</dim>
					<dim>1</dim>
					<dim>1</dim>
				</port>
			</output>
		</layer>
		<layer id="274" name="3612361626850" type="Const" version="opset1">
			<data offset="8072" size="4" shape="1,1,1,1" element_type="f32"/>
			<output>
				<port id="0" precision="FP32">
					<dim>1</dim>
					<dim>1</dim>
					<dim>1</dim>
					<dim>1</dim>
				</port>
			</output>
		</layer>
		<layer id="275" name="3613361727627" type="Const" version="opset1">
			<data offset="8068" size="4" shape="1,1,1,1" element_type="f32"/>
			<output>
				<port id="0" precision="FP32">
					<dim>1</dim>
					<dim>1</dim>
					<dim>1</dim>
					<dim>1</dim>
				</port>
			</output>
		</layer>
		<layer id="276" name="3614361827228" type="Const" version="opset1">
			<data offset="8072" size="4" shape="1,1,1,1" element_type="f32"/>
			<output>
				<port id="0" precision="FP32">
					<dim>1</dim>
					<dim>1</dim>
					<dim>1</dim>
					<dim>1</dim>
				</port>
			</output>
		</layer>
		<layer id="277" name="5301530526748" type="Const" version="opset1">
			<data offset="8076" size="4" shape="1,1,1,1" element_type="f32"/>
			<output>
				<port id="0" precision="FP32">
					<dim>1</dim>
					<dim>1</dim>
					<dim>1</dim>
					<dim>1</dim>
				</port>
			</output>
		</layer>
		<layer id="278" name="5302530624756" type="Const" version="opset1">
			<data offset="8080" size="4" shape="1,1,1,1" element_type="f32"/>
			<output>
				<port id="0" precision="FP32">
					<dim>1</dim>
					<dim>1</dim>
					<dim>1</dim>
					<dim>1</dim>
				</port>
			</output>
		</layer>
		<layer id="279" name="5303530727633" type="Const" version="opset1">
			<data offset="8076" size="4" shape="1,1,1,1" element_type="f32"/>
			<output>
				<port id="0" precision="FP32">
					<dim>1</dim>
					<dim>1</dim>
					<dim>1</dim>
					<dim>1</dim>
				</port>
			</output>
		</layer>
		<layer id="280" name="5304530826367" type="Const" version="opset1">
			<data offset="8080" size="4" shape="1,1,1,1" element_type="f32"/>
			<output>
				<port id="0" precision="FP32">
					<dim>1</dim>
					<dim>1</dim>
					<dim>1</dim>
					<dim>1</dim>
				</port>
			</output>
		</layer>
		<layer id="281" name="4501450525836" type="Const" version="opset1">
			<data offset="8084" size="64" shape="1,16,1,1" element_type="f32"/>
			<output>
				<port id="0" precision="FP32">
					<dim>1</dim>
					<dim>16</dim>
					<dim>1</dim>
					<dim>1</dim>
				</port>
			</output>
		</layer>
		<layer id="282" name="4502450627336" type="Const" version="opset1">
			<data offset="8148" size="64" shape="1,16,1,1" element_type="f32"/>
			<output>
				<port id="0" precision="FP32">
					<dim>1</dim>
					<dim>16</dim>
					<dim>1</dim>
					<dim>1</dim>
				</port>
			</output>
		</layer>
		<layer id="283" name="4503450725866" type="Const" version="opset1">
			<data offset="8084" size="64" shape="1,16,1,1" element_type="f32"/>
			<output>
				<port id="0" precision="FP32">
					<dim>1</dim>
					<dim>16</dim>
					<dim>1</dim>
					<dim>1</dim>
				</port>
			</output>
		</layer>
		<layer id="284" name="4504450824846" type="Const" version="opset1">
			<data offset="8148" size="64" shape="1,16,1,1" element_type="f32"/>
			<output>
				<port id="0" precision="FP32">
					<dim>1</dim>
					<dim>16</dim>
					<dim>1</dim>
					<dim>1</dim>
				</port>
			</output>
		</layer>
		<layer id="285" name="bottleneck2_0/dim_red/conv/fq_weights_1/scale1669926283" type="Const" version="opset1">
			<data offset="8212" size="64" shape="16,1,1,1" element_type="f32"/>
			<output>
				<port id="0" precision="FP32">
					<dim>16</dim>
					<dim>1</dim>
					<dim>1</dim>
					<dim>1</dim>
				</port>
			</output>
		</layer>
		<layer id="286" name="bottleneck2_0/dim_red/bn/mean/Fused_Mul__copy83713283/quantized1669125041" type="Const" version="opset1">
			<data offset="8276" size="512" shape="16,32,1,1" element_type="i8"/>
			<output>
				<port id="0" precision="I8">
					<dim>16</dim>
					<dim>32</dim>
					<dim>1</dim>
					<dim>1</dim>
				</port>
			</output>
		</layer>
		<layer id="287" name="bottleneck2_0/dim_red/bn/mean/Fused_Mul__copy83713283/quantized/to_f32" type="Convert" version="opset1">
			<data destination_type="f32"/>
			<input>
				<port id="0">
					<dim>16</dim>
					<dim>32</dim>
					<dim>1</dim>
					<dim>1</dim>
				</port>
			</input>
			<output>
				<port id="1" precision="FP32">
					<dim>16</dim>
					<dim>32</dim>
					<dim>1</dim>
					<dim>1</dim>
				</port>
			</output>
		</layer>
		<layer id="288" name="bottleneck2_0/dim_red/conv/fq_weights_1/mulpiply_by_scale" type="Multiply" version="opset1">
			<data auto_broadcast="numpy"/>
			<input>
				<port id="0">
					<dim>16</dim>
					<dim>32</dim>
					<dim>1</dim>
					<dim>1</dim>
				</port>
				<port id="1">
					<dim>16</dim>
					<dim>1</dim>
					<dim>1</dim>
					<dim>1</dim>
				</port>
			</input>
			<output>
				<port id="2" precision="FP32">
					<dim>16</dim>
					<dim>32</dim>
					<dim>1</dim>
					<dim>1</dim>
				</port>
			</output>
		</layer>
		<layer id="289" name="bottleneck2_0/dim_red/conv" type="Convolution" version="opset1">
			<data auto_pad="explicit" strides="1,1" dilations="1,1" pads_begin="0,0" pads_end="0,0"/>
			<input>
				<port id="0">
					<dim>1</dim>
					<dim>32</dim>
					<dim>160</dim>
					<dim>272</dim>
				</port>
				<port id="1">
					<dim>16</dim>
					<dim>32</dim>
					<dim>1</dim>
					<dim>1</dim>
				</port>
			</input>
			<output>
				<port id="2" precision="FP32">
					<dim>1</dim>
					<dim>16</dim>
					<dim>160</dim>
					<dim>272</dim>
				</port>
			</output>
		</layer>
		<layer id="290" name="data_add_245612456683924621" type="Const" version="opset1">
			<data offset="8788" size="64" shape="1,16,1,1" element_type="f32"/>
			<output>
				<port id="0" precision="FP32">
					<dim>1</dim>
					<dim>16</dim>
					<dim>1</dim>
					<dim>1</dim>
				</port>
			</output>
		</layer>
		<layer id="291" name="bottleneck2_0/dim_red/bn/variance/Fused_Add_" type="Add" version="opset1">
			<data auto_broadcast="numpy"/>
			<input>
				<port id="0">
					<dim>1</dim>
					<dim>16</dim>
					<dim>160</dim>
					<dim>272</dim>
				</port>
				<port id="1">
					<dim>1</dim>
					<dim>16</dim>
					<dim>1</dim>
					<dim>1</dim>
				</port>
			</input>
			<output>
				<port id="2" precision="FP32" names="bottleneck2_0/dim_red/conv">
					<dim>1</dim>
					<dim>16</dim>
					<dim>160</dim>
					<dim>272</dim>
				</port>
			</output>
		</layer>
		<layer id="292" name="bottleneck2_0/dim_red/fn/weights3103640484841" type="Const" version="opset1">
			<data offset="1592" size="4" shape="1" element_type="f32"/>
			<output>
				<port id="0" precision="FP32">
					<dim>1</dim>
				</port>
			</output>
		</layer>
		<layer id="293" name="bottleneck2_0/dim_red/fn" type="PReLU" version="opset1">
			<input>
				<port id="0">
					<dim>1</dim>
					<dim>16</dim>
					<dim>160</dim>
					<dim>272</dim>
				</port>
				<port id="1">
					<dim>1</dim>
				</port>
			</input>
			<output>
				<port id="2" precision="FP32" names="bottleneck2_0/dim_red/conv">
					<dim>1</dim>
					<dim>16</dim>
					<dim>160</dim>
					<dim>272</dim>
				</port>
			</output>
		</layer>
		<layer id="294" name="bottleneck2_0/inner/dw1/conv/fq_input_0" type="FakeQuantize" version="opset1">
			<data levels="256" auto_broadcast="numpy"/>
			<input>
				<port id="0">
					<dim>1</dim>
					<dim>16</dim>
					<dim>160</dim>
					<dim>272</dim>
				</port>
				<port id="1">
					<dim>1</dim>
					<dim>16</dim>
					<dim>1</dim>
					<dim>1</dim>
				</port>
				<port id="2">
					<dim>1</dim>
					<dim>16</dim>
					<dim>1</dim>
					<dim>1</dim>
				</port>
				<port id="3">
					<dim>1</dim>
					<dim>16</dim>
					<dim>1</dim>
					<dim>1</dim>
				</port>
				<port id="4">
					<dim>1</dim>
					<dim>16</dim>
					<dim>1</dim>
					<dim>1</dim>
				</port>
			</input>
			<output>
				<port id="5" precision="FP32">
					<dim>1</dim>
					<dim>16</dim>
					<dim>160</dim>
					<dim>272</dim>
				</port>
			</output>
		</layer>
		<layer id="295" name="bottleneck2_0/inner/dw1/conv/weights_shape2166127231" type="Const" version="opset1">
			<data offset="8852" size="40" shape="5" element_type="i64"/>
			<output>
				<port id="0" precision="I64">
					<dim>5</dim>
				</port>
			</output>
		</layer>
		<layer id="296" name="bottleneck2_0/inner/dw1/conv/fq_weights_1/scale1684926016" type="Const" version="opset1">
			<data offset="8892" size="64" shape="16,1,1,1" element_type="f32"/>
			<output>
				<port id="0" precision="FP32">
					<dim>16</dim>
					<dim>1</dim>
					<dim>1</dim>
					<dim>1</dim>
				</port>
			</output>
		</layer>
		<layer id="297" name="bottleneck2_0/inner/dw1/bn/mean/Fused_Mul__copy84313286/quantized1684127351" type="Const" version="opset1">
			<data offset="8956" size="144" shape="16,1,3,3" element_type="i8"/>
			<output>
				<port id="0" precision="I8">
					<dim>16</dim>
					<dim>1</dim>
					<dim>3</dim>
					<dim>3</dim>
				</port>
			</output>
		</layer>
		<layer id="298" name="bottleneck2_0/inner/dw1/bn/mean/Fused_Mul__copy84313286/quantized/to_f32" type="Convert" version="opset1">
			<data destination_type="f32"/>
			<input>
				<port id="0">
					<dim>16</dim>
					<dim>1</dim>
					<dim>3</dim>
					<dim>3</dim>
				</port>
			</input>
			<output>
				<port id="1" precision="FP32">
					<dim>16</dim>
					<dim>1</dim>
					<dim>3</dim>
					<dim>3</dim>
				</port>
			</output>
		</layer>
		<layer id="299" name="bottleneck2_0/inner/dw1/conv/fq_weights_1/mulpiply_by_scale" type="Multiply" version="opset1">
			<data auto_broadcast="numpy"/>
			<input>
				<port id="0">
					<dim>16</dim>
					<dim>1</dim>
					<dim>3</dim>
					<dim>3</dim>
				</port>
				<port id="1">
					<dim>16</dim>
					<dim>1</dim>
					<dim>1</dim>
					<dim>1</dim>
				</port>
			</input>
			<output>
				<port id="2" precision="FP32">
					<dim>16</dim>
					<dim>1</dim>
					<dim>3</dim>
					<dim>3</dim>
				</port>
			</output>
		</layer>
		<layer id="300" name="21660" type="Reshape" version="opset1">
			<data special_zero="true"/>
			<input>
				<port id="0">
					<dim>16</dim>
					<dim>1</dim>
					<dim>3</dim>
					<dim>3</dim>
				</port>
				<port id="1">
					<dim>5</dim>
				</port>
			</input>
			<output>
				<port id="2" precision="FP32">
					<dim>16</dim>
					<dim>1</dim>
					<dim>1</dim>
					<dim>3</dim>
					<dim>3</dim>
				</port>
			</output>
		</layer>
		<layer id="301" name="bottleneck2_0/inner/dw1/conv" type="GroupConvolution" version="opset1">
			<data auto_pad="explicit" strides="2,2" dilations="1,1" pads_begin="1,1" pads_end="1,1"/>
			<input>
				<port id="0">
					<dim>1</dim>
					<dim>16</dim>
					<dim>160</dim>
					<dim>272</dim>
				</port>
				<port id="1">
					<dim>16</dim>
					<dim>1</dim>
					<dim>1</dim>
					<dim>3</dim>
					<dim>3</dim>
				</port>
			</input>
			<output>
				<port id="2" precision="FP32">
					<dim>1</dim>
					<dim>16</dim>
					<dim>80</dim>
					<dim>136</dim>
				</port>
			</output>
		</layer>
		<layer id="302" name="data_add_245692457484526280" type="Const" version="opset1">
			<data offset="9100" size="64" shape="1,16,1,1" element_type="f32"/>
			<output>
				<port id="0" precision="FP32">
					<dim>1</dim>
					<dim>16</dim>
					<dim>1</dim>
					<dim>1</dim>
				</port>
			</output>
		</layer>
		<layer id="303" name="bottleneck2_0/inner/dw1/bn/variance/Fused_Add_" type="Add" version="opset1">
			<data auto_broadcast="numpy"/>
			<input>
				<port id="0">
					<dim>1</dim>
					<dim>16</dim>
					<dim>80</dim>
					<dim>136</dim>
				</port>
				<port id="1">
					<dim>1</dim>
					<dim>16</dim>
					<dim>1</dim>
					<dim>1</dim>
				</port>
			</input>
			<output>
				<port id="2" precision="FP32" names="bottleneck2_0/inner/dw1/conv">
					<dim>1</dim>
					<dim>16</dim>
					<dim>80</dim>
					<dim>136</dim>
				</port>
			</output>
		</layer>
		<layer id="304" name="bottleneck2_0/inner/dw1/fn/weights3112840424847" type="Const" version="opset1">
			<data offset="1592" size="4" shape="1" element_type="f32"/>
			<output>
				<port id="0" precision="FP32">
					<dim>1</dim>
				</port>
			</output>
		</layer>
		<layer id="305" name="bottleneck2_0/inner/dw1/fn" type="PReLU" version="opset1">
			<input>
				<port id="0">
					<dim>1</dim>
					<dim>16</dim>
					<dim>80</dim>
					<dim>136</dim>
				</port>
				<port id="1">
					<dim>1</dim>
				</port>
			</input>
			<output>
				<port id="2" precision="FP32" names="bottleneck2_0/inner/dw1/conv">
					<dim>1</dim>
					<dim>16</dim>
					<dim>80</dim>
					<dim>136</dim>
				</port>
			</output>
		</layer>
		<layer id="306" name="bottleneck2_0/dim_inc/conv/fq_input_0" type="FakeQuantize" version="opset1">
			<data levels="256" auto_broadcast="numpy"/>
			<input>
				<port id="0">
					<dim>1</dim>
					<dim>16</dim>
					<dim>80</dim>
					<dim>136</dim>
				</port>
				<port id="1">
					<dim>1</dim>
					<dim>1</dim>
					<dim>1</dim>
					<dim>1</dim>
				</port>
				<port id="2">
					<dim>1</dim>
					<dim>1</dim>
					<dim>1</dim>
					<dim>1</dim>
				</port>
				<port id="3">
					<dim>1</dim>
					<dim>1</dim>
					<dim>1</dim>
					<dim>1</dim>
				</port>
				<port id="4">
					<dim>1</dim>
					<dim>1</dim>
					<dim>1</dim>
					<dim>1</dim>
				</port>
			</input>
			<output>
				<port id="5" precision="FP32">
					<dim>1</dim>
					<dim>16</dim>
					<dim>80</dim>
					<dim>136</dim>
				</port>
			</output>
		</layer>
		<layer id="307" name="bottleneck2_0/dim_inc/conv/fq_weights_1/scale1534924591" type="Const" version="opset1">
			<data offset="9164" size="256" shape="64,1,1,1" element_type="f32"/>
			<output>
				<port id="0" precision="FP32">
					<dim>64</dim>
					<dim>1</dim>
					<dim>1</dim>
					<dim>1</dim>
				</port>
			</output>
		</layer>
		<layer id="308" name="bottleneck2_0/dim_inc/bn/mean/Fused_Mul__copy84913289/quantized1534124993" type="Const" version="opset1">
			<data offset="9420" size="1024" shape="64,16,1,1" element_type="i8"/>
			<output>
				<port id="0" precision="I8">
					<dim>64</dim>
					<dim>16</dim>
					<dim>1</dim>
					<dim>1</dim>
				</port>
			</output>
		</layer>
		<layer id="309" name="bottleneck2_0/dim_inc/bn/mean/Fused_Mul__copy84913289/quantized/to_f32" type="Convert" version="opset1">
			<data destination_type="f32"/>
			<input>
				<port id="0">
					<dim>64</dim>
					<dim>16</dim>
					<dim>1</dim>
					<dim>1</dim>
				</port>
			</input>
			<output>
				<port id="1" precision="FP32">
					<dim>64</dim>
					<dim>16</dim>
					<dim>1</dim>
					<dim>1</dim>
				</port>
			</output>
		</layer>
		<layer id="310" name="bottleneck2_0/dim_inc/conv/fq_weights_1/mulpiply_by_scale" type="Multiply" version="opset1">
			<data auto_broadcast="numpy"/>
			<input>
				<port id="0">
					<dim>64</dim>
					<dim>16</dim>
					<dim>1</dim>
					<dim>1</dim>
				</port>
				<port id="1">
					<dim>64</dim>
					<dim>1</dim>
					<dim>1</dim>
					<dim>1</dim>
				</port>
			</input>
			<output>
				<port id="2" precision="FP32">
					<dim>64</dim>
					<dim>16</dim>
					<dim>1</dim>
					<dim>1</dim>
				</port>
			</output>
		</layer>
		<layer id="311" name="bottleneck2_0/dim_inc/conv" type="Convolution" version="opset1">
			<data auto_pad="explicit" strides="1,1" dilations="1,1" pads_begin="0,0" pads_end="0,0"/>
			<input>
				<port id="0">
					<dim>1</dim>
					<dim>16</dim>
					<dim>80</dim>
					<dim>136</dim>
				</port>
				<port id="1">
					<dim>64</dim>
					<dim>16</dim>
					<dim>1</dim>
					<dim>1</dim>
				</port>
			</input>
			<output>
				<port id="2" precision="FP32">
					<dim>1</dim>
					<dim>64</dim>
					<dim>80</dim>
					<dim>136</dim>
				</port>
			</output>
		</layer>
		<layer id="312" name="data_add_245772458285125980" type="Const" version="opset1">
			<data offset="10444" size="256" shape="1,64,1,1" element_type="f32"/>
			<output>
				<port id="0" precision="FP32">
					<dim>1</dim>
					<dim>64</dim>
					<dim>1</dim>
					<dim>1</dim>
				</port>
			</output>
		</layer>
		<layer id="313" name="bottleneck2_0/dim_inc/bn/variance/Fused_Add_" type="Add" version="opset1">
			<data auto_broadcast="numpy"/>
			<input>
				<port id="0">
					<dim>1</dim>
					<dim>64</dim>
					<dim>80</dim>
					<dim>136</dim>
				</port>
				<port id="1">
					<dim>1</dim>
					<dim>64</dim>
					<dim>1</dim>
					<dim>1</dim>
				</port>
			</input>
			<output>
				<port id="2" precision="FP32" names="bottleneck2_0/dim_inc/conv">
					<dim>1</dim>
					<dim>64</dim>
					<dim>80</dim>
					<dim>136</dim>
				</port>
			</output>
		</layer>
		<layer id="314" name="bottleneck2_0/add/fq_input_1" type="FakeQuantize" version="opset1">
			<data levels="256" auto_broadcast="numpy"/>
			<input>
				<port id="0">
					<dim>1</dim>
					<dim>64</dim>
					<dim>80</dim>
					<dim>136</dim>
				</port>
				<port id="1">
					<dim>1</dim>
					<dim>1</dim>
					<dim>1</dim>
					<dim>1</dim>
				</port>
				<port id="2">
					<dim>1</dim>
					<dim>1</dim>
					<dim>1</dim>
					<dim>1</dim>
				</port>
				<port id="3">
					<dim>1</dim>
					<dim>1</dim>
					<dim>1</dim>
					<dim>1</dim>
				</port>
				<port id="4">
					<dim>1</dim>
					<dim>1</dim>
					<dim>1</dim>
					<dim>1</dim>
				</port>
			</input>
			<output>
				<port id="5" precision="FP32">
					<dim>1</dim>
					<dim>64</dim>
					<dim>80</dim>
					<dim>136</dim>
				</port>
			</output>
		</layer>
		<layer id="315" name="bottleneck2_0/add" type="Add" version="opset1">
			<data auto_broadcast="numpy"/>
			<input>
				<port id="0">
					<dim>1</dim>
					<dim>64</dim>
					<dim>80</dim>
					<dim>136</dim>
				</port>
				<port id="1">
					<dim>1</dim>
					<dim>64</dim>
					<dim>80</dim>
					<dim>136</dim>
				</port>
			</input>
			<output>
				<port id="2" precision="FP32" names="bottleneck2_0/add">
					<dim>1</dim>
					<dim>64</dim>
					<dim>80</dim>
					<dim>136</dim>
				</port>
			</output>
		</layer>
		<layer id="316" name="bottleneck2_0/fn/weights3106040844854" type="Const" version="opset1">
			<data offset="1592" size="4" shape="1" element_type="f32"/>
			<output>
				<port id="0" precision="FP32">
					<dim>1</dim>
				</port>
			</output>
		</layer>
		<layer id="317" name="bottleneck2_0/fn" type="PReLU" version="opset1">
			<input>
				<port id="0">
					<dim>1</dim>
					<dim>64</dim>
					<dim>80</dim>
					<dim>136</dim>
				</port>
				<port id="1">
					<dim>1</dim>
				</port>
			</input>
			<output>
				<port id="2" precision="FP32" names="bottleneck2_0/add">
					<dim>1</dim>
					<dim>64</dim>
					<dim>80</dim>
					<dim>136</dim>
				</port>
			</output>
		</layer>
		<layer id="318" name="bottleneck2_1/add/fq_input_0" type="FakeQuantize" version="opset1">
			<data levels="256" auto_broadcast="numpy"/>
			<input>
				<port id="0">
					<dim>1</dim>
					<dim>64</dim>
					<dim>80</dim>
					<dim>136</dim>
				</port>
				<port id="1">
					<dim>1</dim>
					<dim>1</dim>
					<dim>1</dim>
					<dim>1</dim>
				</port>
				<port id="2">
					<dim>1</dim>
					<dim>1</dim>
					<dim>1</dim>
					<dim>1</dim>
				</port>
				<port id="3">
					<dim>1</dim>
					<dim>1</dim>
					<dim>1</dim>
					<dim>1</dim>
				</port>
				<port id="4">
					<dim>1</dim>
					<dim>1</dim>
					<dim>1</dim>
					<dim>1</dim>
				</port>
			</input>
			<output>
				<port id="5" precision="FP32">
					<dim>1</dim>
					<dim>64</dim>
					<dim>80</dim>
					<dim>136</dim>
				</port>
			</output>
		</layer>
		<layer id="319" name="5891589525944" type="Const" version="opset1">
			<data offset="10700" size="4" shape="1,1,1,1" element_type="f32"/>
			<output>
				<port id="0" precision="FP32">
					<dim>1</dim>
					<dim>1</dim>
					<dim>1</dim>
					<dim>1</dim>
				</port>
			</output>
		</layer>
		<layer id="320" name="5892589625167" type="Const" version="opset1">
			<data offset="10704" size="4" shape="1,1,1,1" element_type="f32"/>
			<output>
				<port id="0" precision="FP32">
					<dim>1</dim>
					<dim>1</dim>
					<dim>1</dim>
					<dim>1</dim>
				</port>
			</output>
		</layer>
		<layer id="321" name="5893589727303" type="Const" version="opset1">
			<data offset="10700" size="4" shape="1,1,1,1" element_type="f32"/>
			<output>
				<port id="0" precision="FP32">
					<dim>1</dim>
					<dim>1</dim>
					<dim>1</dim>
					<dim>1</dim>
				</port>
			</output>
		</layer>
		<layer id="322" name="5894589825569" type="Const" version="opset1">
			<data offset="10704" size="4" shape="1,1,1,1" element_type="f32"/>
			<output>
				<port id="0" precision="FP32">
					<dim>1</dim>
					<dim>1</dim>
					<dim>1</dim>
					<dim>1</dim>
				</port>
			</output>
		</layer>
		<layer id="323" name="3821382527681" type="Const" version="opset1">
			<data offset="10708" size="4" shape="1,1,1,1" element_type="f32"/>
			<output>
				<port id="0" precision="FP32">
					<dim>1</dim>
					<dim>1</dim>
					<dim>1</dim>
					<dim>1</dim>
				</port>
			</output>
		</layer>
		<layer id="324" name="3822382626400" type="Const" version="opset1">
			<data offset="10712" size="4" shape="1,1,1,1" element_type="f32"/>
			<output>
				<port id="0" precision="FP32">
					<dim>1</dim>
					<dim>1</dim>
					<dim>1</dim>
					<dim>1</dim>
				</port>
			</output>
		</layer>
		<layer id="325" name="3823382725578" type="Const" version="opset1">
			<data offset="10708" size="4" shape="1,1,1,1" element_type="f32"/>
			<output>
				<port id="0" precision="FP32">
					<dim>1</dim>
					<dim>1</dim>
					<dim>1</dim>
					<dim>1</dim>
				</port>
			</output>
		</layer>
		<layer id="326" name="3824382826685" type="Const" version="opset1">
			<data offset="10712" size="4" shape="1,1,1,1" element_type="f32"/>
			<output>
				<port id="0" precision="FP32">
					<dim>1</dim>
					<dim>1</dim>
					<dim>1</dim>
					<dim>1</dim>
				</port>
			</output>
		</layer>
		<layer id="327" name="5401540527618" type="Const" version="opset1">
			<data offset="10716" size="64" shape="1,16,1,1" element_type="f32"/>
			<output>
				<port id="0" precision="FP32">
					<dim>1</dim>
					<dim>16</dim>
					<dim>1</dim>
					<dim>1</dim>
				</port>
			</output>
		</layer>
		<layer id="328" name="5402540626877" type="Const" version="opset1">
			<data offset="10780" size="64" shape="1,16,1,1" element_type="f32"/>
			<output>
				<port id="0" precision="FP32">
					<dim>1</dim>
					<dim>16</dim>
					<dim>1</dim>
					<dim>1</dim>
				</port>
			</output>
		</layer>
		<layer id="329" name="5403540725113" type="Const" version="opset1">
			<data offset="10716" size="64" shape="1,16,1,1" element_type="f32"/>
			<output>
				<port id="0" precision="FP32">
					<dim>1</dim>
					<dim>16</dim>
					<dim>1</dim>
					<dim>1</dim>
				</port>
			</output>
		</layer>
		<layer id="330" name="5404540824978" type="Const" version="opset1">
			<data offset="10780" size="64" shape="1,16,1,1" element_type="f32"/>
			<output>
				<port id="0" precision="FP32">
					<dim>1</dim>
					<dim>16</dim>
					<dim>1</dim>
					<dim>1</dim>
				</port>
			</output>
		</layer>
		<layer id="331" name="bottleneck2_1/dim_red/conv/fq_weights_1/scale1495925842" type="Const" version="opset1">
			<data offset="10844" size="64" shape="16,1,1,1" element_type="f32"/>
			<output>
				<port id="0" precision="FP32">
					<dim>16</dim>
					<dim>1</dim>
					<dim>1</dim>
					<dim>1</dim>
				</port>
			</output>
		</layer>
		<layer id="332" name="bottleneck2_1/dim_red/bn/mean/Fused_Mul__copy85613292/quantized1495125659" type="Const" version="opset1">
			<data offset="10908" size="1024" shape="16,64,1,1" element_type="i8"/>
			<output>
				<port id="0" precision="I8">
					<dim>16</dim>
					<dim>64</dim>
					<dim>1</dim>
					<dim>1</dim>
				</port>
			</output>
		</layer>
		<layer id="333" name="bottleneck2_1/dim_red/bn/mean/Fused_Mul__copy85613292/quantized/to_f32" type="Convert" version="opset1">
			<data destination_type="f32"/>
			<input>
				<port id="0">
					<dim>16</dim>
					<dim>64</dim>
					<dim>1</dim>
					<dim>1</dim>
				</port>
			</input>
			<output>
				<port id="1" precision="FP32">
					<dim>16</dim>
					<dim>64</dim>
					<dim>1</dim>
					<dim>1</dim>
				</port>
			</output>
		</layer>
		<layer id="334" name="bottleneck2_1/dim_red/conv/fq_weights_1/mulpiply_by_scale" type="Multiply" version="opset1">
			<data auto_broadcast="numpy"/>
			<input>
				<port id="0">
					<dim>16</dim>
					<dim>64</dim>
					<dim>1</dim>
					<dim>1</dim>
				</port>
				<port id="1">
					<dim>16</dim>
					<dim>1</dim>
					<dim>1</dim>
					<dim>1</dim>
				</port>
			</input>
			<output>
				<port id="2" precision="FP32">
					<dim>16</dim>
					<dim>64</dim>
					<dim>1</dim>
					<dim>1</dim>
				</port>
			</output>
		</layer>
		<layer id="335" name="bottleneck2_1/dim_red/conv" type="Convolution" version="opset1">
			<data auto_pad="explicit" strides="1,1" dilations="1,1" pads_begin="0,0" pads_end="0,0"/>
			<input>
				<port id="0">
					<dim>1</dim>
					<dim>64</dim>
					<dim>80</dim>
					<dim>136</dim>
				</port>
				<port id="1">
					<dim>16</dim>
					<dim>64</dim>
					<dim>1</dim>
					<dim>1</dim>
				</port>
			</input>
			<output>
				<port id="2" precision="FP32">
					<dim>1</dim>
					<dim>16</dim>
					<dim>80</dim>
					<dim>136</dim>
				</port>
			</output>
		</layer>
		<layer id="336" name="data_add_245852459085825524" type="Const" version="opset1">
			<data offset="11932" size="64" shape="1,16,1,1" element_type="f32"/>
			<output>
				<port id="0" precision="FP32">
					<dim>1</dim>
					<dim>16</dim>
					<dim>1</dim>
					<dim>1</dim>
				</port>
			</output>
		</layer>
		<layer id="337" name="bottleneck2_1/dim_red/bn/variance/Fused_Add_" type="Add" version="opset1">
			<data auto_broadcast="numpy"/>
			<input>
				<port id="0">
					<dim>1</dim>
					<dim>16</dim>
					<dim>80</dim>
					<dim>136</dim>
				</port>
				<port id="1">
					<dim>1</dim>
					<dim>16</dim>
					<dim>1</dim>
					<dim>1</dim>
				</port>
			</input>
			<output>
				<port id="2" precision="FP32" names="bottleneck2_1/dim_red/conv">
					<dim>1</dim>
					<dim>16</dim>
					<dim>80</dim>
					<dim>136</dim>
				</port>
			</output>
		</layer>
		<layer id="338" name="bottleneck2_1/dim_red/fn/weights3099240652860" type="Const" version="opset1">
			<data offset="1592" size="4" shape="1" element_type="f32"/>
			<output>
				<port id="0" precision="FP32">
					<dim>1</dim>
				</port>
			</output>
		</layer>
		<layer id="339" name="bottleneck2_1/dim_red/fn" type="PReLU" version="opset1">
			<input>
				<port id="0">
					<dim>1</dim>
					<dim>16</dim>
					<dim>80</dim>
					<dim>136</dim>
				</port>
				<port id="1">
					<dim>1</dim>
				</port>
			</input>
			<output>
				<port id="2" precision="FP32" names="bottleneck2_1/dim_red/conv">
					<dim>1</dim>
					<dim>16</dim>
					<dim>80</dim>
					<dim>136</dim>
				</port>
			</output>
		</layer>
		<layer id="340" name="bottleneck2_1/inner/dw1/conv/fq_input_0" type="FakeQuantize" version="opset1">
			<data levels="256" auto_broadcast="numpy"/>
			<input>
				<port id="0">
					<dim>1</dim>
					<dim>16</dim>
					<dim>80</dim>
					<dim>136</dim>
				</port>
				<port id="1">
					<dim>1</dim>
					<dim>16</dim>
					<dim>1</dim>
					<dim>1</dim>
				</port>
				<port id="2">
					<dim>1</dim>
					<dim>16</dim>
					<dim>1</dim>
					<dim>1</dim>
				</port>
				<port id="3">
					<dim>1</dim>
					<dim>16</dim>
					<dim>1</dim>
					<dim>1</dim>
				</port>
				<port id="4">
					<dim>1</dim>
					<dim>16</dim>
					<dim>1</dim>
					<dim>1</dim>
				</port>
			</input>
			<output>
				<port id="5" precision="FP32">
					<dim>1</dim>
					<dim>16</dim>
					<dim>80</dim>
					<dim>136</dim>
				</port>
			</output>
		</layer>
		<layer id="341" name="bottleneck2_1/inner/dw1/conv/weights_shape2167525455" type="Const" version="opset1">
			<data offset="8852" size="40" shape="5" element_type="i64"/>
			<output>
				<port id="0" precision="I64">
					<dim>5</dim>
				</port>
			</output>
		</layer>
		<layer id="342" name="bottleneck2_1/inner/dw1/conv/fq_weights_1/scale1603925374" type="Const" version="opset1">
			<data offset="11996" size="64" shape="16,1,1,1" element_type="f32"/>
			<output>
				<port id="0" precision="FP32">
					<dim>16</dim>
					<dim>1</dim>
					<dim>1</dim>
					<dim>1</dim>
				</port>
			</output>
		</layer>
		<layer id="343" name="bottleneck2_1/inner/dw1/bn/mean/Fused_Mul__copy86213295/quantized1603127171" type="Const" version="opset1">
			<data offset="12060" size="144" shape="16,1,3,3" element_type="i8"/>
			<output>
				<port id="0" precision="I8">
					<dim>16</dim>
					<dim>1</dim>
					<dim>3</dim>
					<dim>3</dim>
				</port>
			</output>
		</layer>
		<layer id="344" name="bottleneck2_1/inner/dw1/bn/mean/Fused_Mul__copy86213295/quantized/to_f32" type="Convert" version="opset1">
			<data destination_type="f32"/>
			<input>
				<port id="0">
					<dim>16</dim>
					<dim>1</dim>
					<dim>3</dim>
					<dim>3</dim>
				</port>
			</input>
			<output>
				<port id="1" precision="FP32">
					<dim>16</dim>
					<dim>1</dim>
					<dim>3</dim>
					<dim>3</dim>
				</port>
			</output>
		</layer>
		<layer id="345" name="bottleneck2_1/inner/dw1/conv/fq_weights_1/mulpiply_by_scale" type="Multiply" version="opset1">
			<data auto_broadcast="numpy"/>
			<input>
				<port id="0">
					<dim>16</dim>
					<dim>1</dim>
					<dim>3</dim>
					<dim>3</dim>
				</port>
				<port id="1">
					<dim>16</dim>
					<dim>1</dim>
					<dim>1</dim>
					<dim>1</dim>
				</port>
			</input>
			<output>
				<port id="2" precision="FP32">
					<dim>16</dim>
					<dim>1</dim>
					<dim>3</dim>
					<dim>3</dim>
				</port>
			</output>
		</layer>
		<layer id="346" name="21674" type="Reshape" version="opset1">
			<data special_zero="true"/>
			<input>
				<port id="0">
					<dim>16</dim>
					<dim>1</dim>
					<dim>3</dim>
					<dim>3</dim>
				</port>
				<port id="1">
					<dim>5</dim>
				</port>
			</input>
			<output>
				<port id="2" precision="FP32">
					<dim>16</dim>
					<dim>1</dim>
					<dim>1</dim>
					<dim>3</dim>
					<dim>3</dim>
				</port>
			</output>
		</layer>
		<layer id="347" name="bottleneck2_1/inner/dw1/conv" type="GroupConvolution" version="opset1">
			<data auto_pad="explicit" strides="1,1" dilations="1,1" pads_begin="1,1" pads_end="1,1"/>
			<input>
				<port id="0">
					<dim>1</dim>
					<dim>16</dim>
					<dim>80</dim>
					<dim>136</dim>
				</port>
				<port id="1">
					<dim>16</dim>
					<dim>1</dim>
					<dim>1</dim>
					<dim>3</dim>
					<dim>3</dim>
				</port>
			</input>
			<output>
				<port id="2" precision="FP32">
					<dim>1</dim>
					<dim>16</dim>
					<dim>80</dim>
					<dim>136</dim>
				</port>
			</output>
		</layer>
		<layer id="348" name="data_add_245932459886427402" type="Const" version="opset1">
			<data offset="12204" size="64" shape="1,16,1,1" element_type="f32"/>
			<output>
				<port id="0" precision="FP32">
					<dim>1</dim>
					<dim>16</dim>
					<dim>1</dim>
					<dim>1</dim>
				</port>
			</output>
		</layer>
		<layer id="349" name="bottleneck2_1/inner/dw1/bn/variance/Fused_Add_" type="Add" version="opset1">
			<data auto_broadcast="numpy"/>
			<input>
				<port id="0">
					<dim>1</dim>
					<dim>16</dim>
					<dim>80</dim>
					<dim>136</dim>
				</port>
				<port id="1">
					<dim>1</dim>
					<dim>16</dim>
					<dim>1</dim>
					<dim>1</dim>
				</port>
			</input>
			<output>
				<port id="2" precision="FP32" names="bottleneck2_1/inner/dw1/conv">
					<dim>1</dim>
					<dim>16</dim>
					<dim>80</dim>
					<dim>136</dim>
				</port>
			</output>
		</layer>
		<layer id="350" name="bottleneck2_1/inner/dw1/fn/weights3114040100866" type="Const" version="opset1">
			<data offset="1592" size="4" shape="1" element_type="f32"/>
			<output>
				<port id="0" precision="FP32">
					<dim>1</dim>
				</port>
			</output>
		</layer>
		<layer id="351" name="bottleneck2_1/inner/dw1/fn" type="PReLU" version="opset1">
			<input>
				<port id="0">
					<dim>1</dim>
					<dim>16</dim>
					<dim>80</dim>
					<dim>136</dim>
				</port>
				<port id="1">
					<dim>1</dim>
				</port>
			</input>
			<output>
				<port id="2" precision="FP32" names="bottleneck2_1/inner/dw1/conv">
					<dim>1</dim>
					<dim>16</dim>
					<dim>80</dim>
					<dim>136</dim>
				</port>
			</output>
		</layer>
		<layer id="352" name="bottleneck2_1/dim_inc/conv/fq_input_0" type="FakeQuantize" version="opset1">
			<data levels="256" auto_broadcast="numpy"/>
			<input>
				<port id="0">
					<dim>1</dim>
					<dim>16</dim>
					<dim>80</dim>
					<dim>136</dim>
				</port>
				<port id="1">
					<dim>1</dim>
					<dim>1</dim>
					<dim>1</dim>
					<dim>1</dim>
				</port>
				<port id="2">
					<dim>1</dim>
					<dim>1</dim>
					<dim>1</dim>
					<dim>1</dim>
				</port>
				<port id="3">
					<dim>1</dim>
					<dim>1</dim>
					<dim>1</dim>
					<dim>1</dim>
				</port>
				<port id="4">
					<dim>1</dim>
					<dim>1</dim>
					<dim>1</dim>
					<dim>1</dim>
				</port>
			</input>
			<output>
				<port id="5" precision="FP32">
					<dim>1</dim>
					<dim>16</dim>
					<dim>80</dim>
					<dim>136</dim>
				</port>
			</output>
		</layer>
		<layer id="353" name="bottleneck2_1/dim_inc/conv/fq_weights_1/scale1519927297" type="Const" version="opset1">
			<data offset="12268" size="256" shape="64,1,1,1" element_type="f32"/>
			<output>
				<port id="0" precision="FP32">
					<dim>64</dim>
					<dim>1</dim>
					<dim>1</dim>
					<dim>1</dim>
				</port>
			</output>
		</layer>
		<layer id="354" name="bottleneck2_1/dim_inc/bn/mean/Fused_Mul__copy86813298/quantized1519124684" type="Const" version="opset1">
			<data offset="12524" size="1024" shape="64,16,1,1" element_type="i8"/>
			<output>
				<port id="0" precision="I8">
					<dim>64</dim>
					<dim>16</dim>
					<dim>1</dim>
					<dim>1</dim>
				</port>
			</output>
		</layer>
		<layer id="355" name="bottleneck2_1/dim_inc/bn/mean/Fused_Mul__copy86813298/quantized/to_f32" type="Convert" version="opset1">
			<data destination_type="f32"/>
			<input>
				<port id="0">
					<dim>64</dim>
					<dim>16</dim>
					<dim>1</dim>
					<dim>1</dim>
				</port>
			</input>
			<output>
				<port id="1" precision="FP32">
					<dim>64</dim>
					<dim>16</dim>
					<dim>1</dim>
					<dim>1</dim>
				</port>
			</output>
		</layer>
		<layer id="356" name="bottleneck2_1/dim_inc/conv/fq_weights_1/mulpiply_by_scale" type="Multiply" version="opset1">
			<data auto_broadcast="numpy"/>
			<input>
				<port id="0">
					<dim>64</dim>
					<dim>16</dim>
					<dim>1</dim>
					<dim>1</dim>
				</port>
				<port id="1">
					<dim>64</dim>
					<dim>1</dim>
					<dim>1</dim>
					<dim>1</dim>
				</port>
			</input>
			<output>
				<port id="2" precision="FP32">
					<dim>64</dim>
					<dim>16</dim>
					<dim>1</dim>
					<dim>1</dim>
				</port>
			</output>
		</layer>
		<layer id="357" name="bottleneck2_1/dim_inc/conv" type="Convolution" version="opset1">
			<data auto_pad="explicit" strides="1,1" dilations="1,1" pads_begin="0,0" pads_end="0,0"/>
			<input>
				<port id="0">
					<dim>1</dim>
					<dim>16</dim>
					<dim>80</dim>
					<dim>136</dim>
				</port>
				<port id="1">
					<dim>64</dim>
					<dim>16</dim>
					<dim>1</dim>
					<dim>1</dim>
				</port>
			</input>
			<output>
				<port id="2" precision="FP32">
					<dim>1</dim>
					<dim>64</dim>
					<dim>80</dim>
					<dim>136</dim>
				</port>
			</output>
		</layer>
		<layer id="358" name="data_add_246012460687026421" type="Const" version="opset1">
			<data offset="13548" size="256" shape="1,64,1,1" element_type="f32"/>
			<output>
				<port id="0" precision="FP32">
					<dim>1</dim>
					<dim>64</dim>
					<dim>1</dim>
					<dim>1</dim>
				</port>
			</output>
		</layer>
		<layer id="359" name="bottleneck2_1/dim_inc/bn/variance/Fused_Add_" type="Add" version="opset1">
			<data auto_broadcast="numpy"/>
			<input>
				<port id="0">
					<dim>1</dim>
					<dim>64</dim>
					<dim>80</dim>
					<dim>136</dim>
				</port>
				<port id="1">
					<dim>1</dim>
					<dim>64</dim>
					<dim>1</dim>
					<dim>1</dim>
				</port>
			</input>
			<output>
				<port id="2" precision="FP32" names="bottleneck2_1/dim_inc/conv">
					<dim>1</dim>
					<dim>64</dim>
					<dim>80</dim>
					<dim>136</dim>
				</port>
			</output>
		</layer>
		<layer id="360" name="bottleneck2_1/add/fq_input_1" type="FakeQuantize" version="opset1">
			<data levels="256" auto_broadcast="numpy"/>
			<input>
				<port id="0">
					<dim>1</dim>
					<dim>64</dim>
					<dim>80</dim>
					<dim>136</dim>
				</port>
				<port id="1">
					<dim>1</dim>
					<dim>1</dim>
					<dim>1</dim>
					<dim>1</dim>
				</port>
				<port id="2">
					<dim>1</dim>
					<dim>1</dim>
					<dim>1</dim>
					<dim>1</dim>
				</port>
				<port id="3">
					<dim>1</dim>
					<dim>1</dim>
					<dim>1</dim>
					<dim>1</dim>
				</port>
				<port id="4">
					<dim>1</dim>
					<dim>1</dim>
					<dim>1</dim>
					<dim>1</dim>
				</port>
			</input>
			<output>
				<port id="5" precision="FP32">
					<dim>1</dim>
					<dim>64</dim>
					<dim>80</dim>
					<dim>136</dim>
				</port>
			</output>
		</layer>
		<layer id="361" name="bottleneck2_1/add" type="Add" version="opset1">
			<data auto_broadcast="numpy"/>
			<input>
				<port id="0">
					<dim>1</dim>
					<dim>64</dim>
					<dim>80</dim>
					<dim>136</dim>
				</port>
				<port id="1">
					<dim>1</dim>
					<dim>64</dim>
					<dim>80</dim>
					<dim>136</dim>
				</port>
			</input>
			<output>
				<port id="2" precision="FP32" names="bottleneck2_1/add">
					<dim>1</dim>
					<dim>64</dim>
					<dim>80</dim>
					<dim>136</dim>
				</port>
			</output>
		</layer>
		<layer id="362" name="bottleneck2_1/fn/weights3111240979873" type="Const" version="opset1">
			<data offset="1592" size="4" shape="1" element_type="f32"/>
			<output>
				<port id="0" precision="FP32">
					<dim>1</dim>
				</port>
			</output>
		</layer>
		<layer id="363" name="bottleneck2_1/fn" type="PReLU" version="opset1">
			<input>
				<port id="0">
					<dim>1</dim>
					<dim>64</dim>
					<dim>80</dim>
					<dim>136</dim>
				</port>
				<port id="1">
					<dim>1</dim>
				</port>
			</input>
			<output>
				<port id="2" precision="FP32" names="bottleneck2_1/add">
					<dim>1</dim>
					<dim>64</dim>
					<dim>80</dim>
					<dim>136</dim>
				</port>
			</output>
		</layer>
		<layer id="364" name="bottleneck2_2/add/fq_input_0" type="FakeQuantize" version="opset1">
			<data levels="256" auto_broadcast="numpy"/>
			<input>
				<port id="0">
					<dim>1</dim>
					<dim>64</dim>
					<dim>80</dim>
					<dim>136</dim>
				</port>
				<port id="1">
					<dim>1</dim>
					<dim>1</dim>
					<dim>1</dim>
					<dim>1</dim>
				</port>
				<port id="2">
					<dim>1</dim>
					<dim>1</dim>
					<dim>1</dim>
					<dim>1</dim>
				</port>
				<port id="3">
					<dim>1</dim>
					<dim>1</dim>
					<dim>1</dim>
					<dim>1</dim>
				</port>
				<port id="4">
					<dim>1</dim>
					<dim>1</dim>
					<dim>1</dim>
					<dim>1</dim>
				</port>
			</input>
			<output>
				<port id="5" precision="FP32">
					<dim>1</dim>
					<dim>64</dim>
					<dim>80</dim>
					<dim>136</dim>
				</port>
			</output>
		</layer>
		<layer id="365" name="4311431527369" type="Const" version="opset1">
			<data offset="13804" size="4" shape="1,1,1,1" element_type="f32"/>
			<output>
				<port id="0" precision="FP32">
					<dim>1</dim>
					<dim>1</dim>
					<dim>1</dim>
					<dim>1</dim>
				</port>
			</output>
		</layer>
		<layer id="366" name="4312431625542" type="Const" version="opset1">
			<data offset="13808" size="4" shape="1,1,1,1" element_type="f32"/>
			<output>
				<port id="0" precision="FP32">
					<dim>1</dim>
					<dim>1</dim>
					<dim>1</dim>
					<dim>1</dim>
				</port>
			</output>
		</layer>
		<layer id="367" name="4313431725146" type="Const" version="opset1">
			<data offset="13804" size="4" shape="1,1,1,1" element_type="f32"/>
			<output>
				<port id="0" precision="FP32">
					<dim>1</dim>
					<dim>1</dim>
					<dim>1</dim>
					<dim>1</dim>
				</port>
			</output>
		</layer>
		<layer id="368" name="4314431824954" type="Const" version="opset1">
			<data offset="13808" size="4" shape="1,1,1,1" element_type="f32"/>
			<output>
				<port id="0" precision="FP32">
					<dim>1</dim>
					<dim>1</dim>
					<dim>1</dim>
					<dim>1</dim>
				</port>
			</output>
		</layer>
		<layer id="369" name="3281328525245" type="Const" version="opset1">
			<data offset="13812" size="4" shape="1,1,1,1" element_type="f32"/>
			<output>
…
		<edge from-layer="1227" from-port="0" to-layer="1232" to-port="1"/>
		<edge from-layer="1226" from-port="5" to-layer="1233" to-port="0"/>
		<edge from-layer="1232" from-port="2" to-layer="1233" to-port="1"/>
		<edge from-layer="1233" from-port="2" to-layer="1235" to-port="0"/>
		<edge from-layer="1234" from-port="0" to-layer="1235" to-port="1"/>
		<edge from-layer="1235" from-port="2" to-layer="1237" to-port="0"/>
		<edge from-layer="1236" from-port="0" to-layer="1237" to-port="1"/>
		<edge from-layer="1237" from-port="2" to-layer="1238" to-port="0"/>
		<edge from-layer="1209" from-port="0" to-layer="1238" to-port="1"/>
		<edge from-layer="1210" from-port="0" to-layer="1238" to-port="2"/>
		<edge from-layer="1211" from-port="0" to-layer="1238" to-port="3"/>
		<edge from-layer="1212" from-port="0" to-layer="1238" to-port="4"/>
		<edge from-layer="1240" from-port="0" to-layer="1241" to-port="0"/>
		<edge from-layer="1241" from-port="1" to-layer="1242" to-port="0"/>
		<edge from-layer="1239" from-port="0" to-layer="1242" to-port="1"/>
		<edge from-layer="1238" from-port="5" to-layer="1243" to-port="0"/>
		<edge from-layer="1242" from-port="2" to-layer="1243" to-port="1"/>
		<edge from-layer="1243" from-port="2" to-layer="1245" to-port="0"/>
		<edge from-layer="1244" from-port="0" to-layer="1245" to-port="1"/>
		<edge from-layer="1245" from-port="2" to-layer="1246" to-port="0"/>
		<edge from-layer="1205" from-port="0" to-layer="1246" to-port="1"/>
		<edge from-layer="1206" from-port="0" to-layer="1246" to-port="2"/>
		<edge from-layer="1207" from-port="0" to-layer="1246" to-port="3"/>
		<edge from-layer="1208" from-port="0" to-layer="1246" to-port="4"/>
		<edge from-layer="1204" from-port="5" to-layer="1247" to-port="0"/>
		<edge from-layer="1246" from-port="5" to-layer="1247" to-port="1"/>
		<edge from-layer="1247" from-port="2" to-layer="1249" to-port="0"/>
		<edge from-layer="1248" from-port="0" to-layer="1249" to-port="1"/>
		<edge from-layer="1249" from-port="2" to-layer="1250" to-port="0"/>
		<edge from-layer="689" from-port="0" to-layer="1250" to-port="1"/>
		<edge from-layer="690" from-port="0" to-layer="1250" to-port="2"/>
		<edge from-layer="691" from-port="0" to-layer="1250" to-port="3"/>
		<edge from-layer="692" from-port="0" to-layer="1250" to-port="4"/>
		<edge from-layer="1250" from-port="5" to-layer="1251" to-port="0"/>
		<edge from-layer="1306" from-port="0" to-layer="1307" to-port="0"/>
		<edge from-layer="1307" from-port="1" to-layer="1308" to-port="0"/>
		<edge from-layer="1305" from-port="0" to-layer="1308" to-port="1"/>
		<edge from-layer="1251" from-port="1" to-layer="1309" to-port="0"/>
		<edge from-layer="1308" from-port="2" to-layer="1309" to-port="1"/>
		<edge from-layer="1309" from-port="2" to-layer="1311" to-port="0"/>
		<edge from-layer="1310" from-port="0" to-layer="1311" to-port="1"/>
		<edge from-layer="1311" from-port="2" to-layer="1312" to-port="0"/>
		<edge from-layer="1301" from-port="0" to-layer="1312" to-port="1"/>
		<edge from-layer="1302" from-port="0" to-layer="1312" to-port="2"/>
		<edge from-layer="1303" from-port="0" to-layer="1312" to-port="3"/>
		<edge from-layer="1304" from-port="0" to-layer="1312" to-port="4"/>
		<edge from-layer="1326" from-port="0" to-layer="1327" to-port="0"/>
		<edge from-layer="1327" from-port="1" to-layer="1328" to-port="0"/>
		<edge from-layer="1325" from-port="0" to-layer="1328" to-port="1"/>
		<edge from-layer="1250" from-port="5" to-layer="1329" to-port="0"/>
		<edge from-layer="1328" from-port="2" to-layer="1329" to-port="1"/>
		<edge from-layer="1329" from-port="2" to-layer="1331" to-port="0"/>
		<edge from-layer="1330" from-port="0" to-layer="1331" to-port="1"/>
		<edge from-layer="1331" from-port="2" to-layer="1333" to-port="0"/>
		<edge from-layer="1332" from-port="0" to-layer="1333" to-port="1"/>
		<edge from-layer="1333" from-port="2" to-layer="1334" to-port="0"/>
		<edge from-layer="1321" from-port="0" to-layer="1334" to-port="1"/>
		<edge from-layer="1322" from-port="0" to-layer="1334" to-port="2"/>
		<edge from-layer="1323" from-port="0" to-layer="1334" to-port="3"/>
		<edge from-layer="1324" from-port="0" to-layer="1334" to-port="4"/>
		<edge from-layer="1337" from-port="0" to-layer="1338" to-port="0"/>
		<edge from-layer="1338" from-port="1" to-layer="1339" to-port="0"/>
		<edge from-layer="1336" from-port="0" to-layer="1339" to-port="1"/>
		<edge from-layer="1339" from-port="2" to-layer="1340" to-port="0"/>
		<edge from-layer="1335" from-port="0" to-layer="1340" to-port="1"/>
		<edge from-layer="1334" from-port="5" to-layer="1341" to-port="0"/>
		<edge from-layer="1340" from-port="2" to-layer="1341" to-port="1"/>
		<edge from-layer="1341" from-port="2" to-layer="1343" to-port="0"/>
		<edge from-layer="1342" from-port="0" to-layer="1343" to-port="1"/>
		<edge from-layer="1343" from-port="2" to-layer="1345" to-port="0"/>
		<edge from-layer="1344" from-port="0" to-layer="1345" to-port="1"/>
		<edge from-layer="1345" from-port="2" to-layer="1346" to-port="0"/>
		<edge from-layer="1317" from-port="0" to-layer="1346" to-port="1"/>
		<edge from-layer="1318" from-port="0" to-layer="1346" to-port="2"/>
		<edge from-layer="1319" from-port="0" to-layer="1346" to-port="3"/>
		<edge from-layer="1320" from-port="0" to-layer="1346" to-port="4"/>
		<edge from-layer="1348" from-port="0" to-layer="1349" to-port="0"/>
		<edge from-layer="1349" from-port="1" to-layer="1350" to-port="0"/>
		<edge from-layer="1347" from-port="0" to-layer="1350" to-port="1"/>
		<edge from-layer="1346" from-port="5" to-layer="1351" to-port="0"/>
		<edge from-layer="1350" from-port="2" to-layer="1351" to-port="1"/>
		<edge from-layer="1351" from-port="2" to-layer="1353" to-port="0"/>
		<edge from-layer="1352" from-port="0" to-layer="1353" to-port="1"/>
		<edge from-layer="1353" from-port="2" to-layer="1354" to-port="0"/>
		<edge from-layer="1313" from-port="0" to-layer="1354" to-port="1"/>
		<edge from-layer="1314" from-port="0" to-layer="1354" to-port="2"/>
		<edge from-layer="1315" from-port="0" to-layer="1354" to-port="3"/>
		<edge from-layer="1316" from-port="0" to-layer="1354" to-port="4"/>
		<edge from-layer="1312" from-port="5" to-layer="1355" to-port="0"/>
		<edge from-layer="1354" from-port="5" to-layer="1355" to-port="1"/>
		<edge from-layer="1355" from-port="2" to-layer="1357" to-port="0"/>
		<edge from-layer="1356" from-port="0" to-layer="1357" to-port="1"/>
		<edge from-layer="1357" from-port="2" to-layer="1358" to-port="0"/>
		<edge from-layer="1297" from-port="0" to-layer="1358" to-port="1"/>
		<edge from-layer="1298" from-port="0" to-layer="1358" to-port="2"/>
		<edge from-layer="1299" from-port="0" to-layer="1358" to-port="3"/>
		<edge from-layer="1300" from-port="0" to-layer="1358" to-port="4"/>
		<edge from-layer="1372" from-port="0" to-layer="1373" to-port="0"/>
		<edge from-layer="1373" from-port="1" to-layer="1374" to-port="0"/>
		<edge from-layer="1371" from-port="0" to-layer="1374" to-port="1"/>
		<edge from-layer="1358" from-port="5" to-layer="1375" to-port="0"/>
		<edge from-layer="1374" from-port="2" to-layer="1375" to-port="1"/>
		<edge from-layer="1375" from-port="2" to-layer="1377" to-port="0"/>
		<edge from-layer="1376" from-port="0" to-layer="1377" to-port="1"/>
		<edge from-layer="1377" from-port="2" to-layer="1379" to-port="0"/>
		<edge from-layer="1378" from-port="0" to-layer="1379" to-port="1"/>
		<edge from-layer="1379" from-port="2" to-layer="1380" to-port="0"/>
		<edge from-layer="1367" from-port="0" to-layer="1380" to-port="1"/>
		<edge from-layer="1368" from-port="0" to-layer="1380" to-port="2"/>
		<edge from-layer="1369" from-port="0" to-layer="1380" to-port="3"/>
		<edge from-layer="1370" from-port="0" to-layer="1380" to-port="4"/>
		<edge from-layer="1383" from-port="0" to-layer="1384" to-port="0"/>
		<edge from-layer="1384" from-port="1" to-layer="1385" to-port="0"/>
		<edge from-layer="1382" from-port="0" to-layer="1385" to-port="1"/>
		<edge from-layer="1385" from-port="2" to-layer="1386" to-port="0"/>
		<edge from-layer="1381" from-port="0" to-layer="1386" to-port="1"/>
		<edge from-layer="1380" from-port="5" to-layer="1387" to-port="0"/>
		<edge from-layer="1386" from-port="2" to-layer="1387" to-port="1"/>
		<edge from-layer="1387" from-port="2" to-layer="1389" to-port="0"/>
		<edge from-layer="1388" from-port="0" to-layer="1389" to-port="1"/>
		<edge from-layer="1389" from-port="2" to-layer="1391" to-port="0"/>
		<edge from-layer="1390" from-port="0" to-layer="1391" to-port="1"/>
		<edge from-layer="1391" from-port="2" to-layer="1392" to-port="0"/>
		<edge from-layer="1363" from-port="0" to-layer="1392" to-port="1"/>
		<edge from-layer="1364" from-port="0" to-layer="1392" to-port="2"/>
		<edge from-layer="1365" from-port="0" to-layer="1392" to-port="3"/>
		<edge from-layer="1366" from-port="0" to-layer="1392" to-port="4"/>
		<edge from-layer="1394" from-port="0" to-layer="1395" to-port="0"/>
		<edge from-layer="1395" from-port="1" to-layer="1396" to-port="0"/>
		<edge from-layer="1393" from-port="0" to-layer="1396" to-port="1"/>
		<edge from-layer="1392" from-port="5" to-layer="1397" to-port="0"/>
		<edge from-layer="1396" from-port="2" to-layer="1397" to-port="1"/>
		<edge from-layer="1397" from-port="2" to-layer="1399" to-port="0"/>
		<edge from-layer="1398" from-port="0" to-layer="1399" to-port="1"/>
		<edge from-layer="1399" from-port="2" to-layer="1400" to-port="0"/>
		<edge from-layer="1359" from-port="0" to-layer="1400" to-port="1"/>
		<edge from-layer="1360" from-port="0" to-layer="1400" to-port="2"/>
		<edge from-layer="1361" from-port="0" to-layer="1400" to-port="3"/>
		<edge from-layer="1362" from-port="0" to-layer="1400" to-port="4"/>
		<edge from-layer="1358" from-port="5" to-layer="1401" to-port="0"/>
		<edge from-layer="1400" from-port="5" to-layer="1401" to-port="1"/>
		<edge from-layer="1401" from-port="2" to-layer="1403" to-port="0"/>
		<edge from-layer="1402" from-port="0" to-layer="1403" to-port="1"/>
		<edge from-layer="1403" from-port="2" to-layer="1404" to-port="0"/>
		<edge from-layer="1293" from-port="0" to-layer="1404" to-port="1"/>
		<edge from-layer="1294" from-port="0" to-layer="1404" to-port="2"/>
		<edge from-layer="1295" from-port="0" to-layer="1404" to-port="3"/>
		<edge from-layer="1296" from-port="0" to-layer="1404" to-port="4"/>
		<edge from-layer="1418" from-port="0" to-layer="1419" to-port="0"/>
		<edge from-layer="1419" from-port="1" to-layer="1420" to-port="0"/>
		<edge from-layer="1417" from-port="0" to-layer="1420" to-port="1"/>
		<edge from-layer="1404" from-port="5" to-layer="1421" to-port="0"/>
		<edge from-layer="1420" from-port="2" to-layer="1421" to-port="1"/>
		<edge from-layer="1421" from-port="2" to-layer="1423" to-port="0"/>
		<edge from-layer="1422" from-port="0" to-layer="1423" to-port="1"/>
		<edge from-layer="1423" from-port="2" to-layer="1425" to-port="0"/>
		<edge from-layer="1424" from-port="0" to-layer="1425" to-port="1"/>
		<edge from-layer="1425" from-port="2" to-layer="1426" to-port="0"/>
		<edge from-layer="1413" from-port="0" to-layer="1426" to-port="1"/>
		<edge from-layer="1414" from-port="0" to-layer="1426" to-port="2"/>
		<edge from-layer="1415" from-port="0" to-layer="1426" to-port="3"/>
		<edge from-layer="1416" from-port="0" to-layer="1426" to-port="4"/>
		<edge from-layer="1429" from-port="0" to-layer="1430" to-port="0"/>
		<edge from-layer="1430" from-port="1" to-layer="1431" to-port="0"/>
		<edge from-layer="1428" from-port="0" to-layer="1431" to-port="1"/>
		<edge from-layer="1431" from-port="2" to-layer="1432" to-port="0"/>
		<edge from-layer="1427" from-port="0" to-layer="1432" to-port="1"/>
		<edge from-layer="1426" from-port="5" to-layer="1433" to-port="0"/>
		<edge from-layer="1432" from-port="2" to-layer="1433" to-port="1"/>
		<edge from-layer="1433" from-port="2" to-layer="1435" to-port="0"/>
		<edge from-layer="1434" from-port="0" to-layer="1435" to-port="1"/>
		<edge from-layer="1435" from-port="2" to-layer="1437" to-port="0"/>
		<edge from-layer="1436" from-port="0" to-layer="1437" to-port="1"/>
		<edge from-layer="1437" from-port="2" to-layer="1438" to-port="0"/>
		<edge from-layer="1409" from-port="0" to-layer="1438" to-port="1"/>
		<edge from-layer="1410" from-port="0" to-layer="1438" to-port="2"/>
		<edge from-layer="1411" from-port="0" to-layer="1438" to-port="3"/>
		<edge from-layer="1412" from-port="0" to-layer="1438" to-port="4"/>
		<edge from-layer="1440" from-port="0" to-layer="1441" to-port="0"/>
		<edge from-layer="1441" from-port="1" to-layer="1442" to-port="0"/>
		<edge from-layer="1439" from-port="0" to-layer="1442" to-port="1"/>
		<edge from-layer="1438" from-port="5" to-layer="1443" to-port="0"/>
		<edge from-layer="1442" from-port="2" to-layer="1443" to-port="1"/>
		<edge from-layer="1443" from-port="2" to-layer="1445" to-port="0"/>
		<edge from-layer="1444" from-port="0" to-layer="1445" to-port="1"/>
		<edge from-layer="1445" from-port="2" to-layer="1446" to-port="0"/>
		<edge from-layer="1405" from-port="0" to-layer="1446" to-port="1"/>
		<edge from-layer="1406" from-port="0" to-layer="1446" to-port="2"/>
		<edge from-layer="1407" from-port="0" to-layer="1446" to-port="3"/>
		<edge from-layer="1408" from-port="0" to-layer="1446" to-port="4"/>
		<edge from-layer="1404" from-port="5" to-layer="1447" to-port="0"/>
		<edge from-layer="1446" from-port="5" to-layer="1447" to-port="1"/>
		<edge from-layer="1447" from-port="2" to-layer="1449" to-port="0"/>
		<edge from-layer="1448" from-port="0" to-layer="1449" to-port="1"/>
		<edge from-layer="1449" from-port="2" to-layer="1450" to-port="0"/>
		<edge from-layer="1289" from-port="0" to-layer="1450" to-port="1"/>
		<edge from-layer="1290" from-port="0" to-layer="1450" to-port="2"/>
		<edge from-layer="1291" from-port="0" to-layer="1450" to-port="3"/>
		<edge from-layer="1292" from-port="0" to-layer="1450" to-port="4"/>
		<edge from-layer="1464" from-port="0" to-layer="1465" to-port="0"/>
		<edge from-layer="1465" from-port="1" to-layer="1466" to-port="0"/>
		<edge from-layer="1463" from-port="0" to-layer="1466" to-port="1"/>
		<edge from-layer="1450" from-port="5" to-layer="1467" to-port="0"/>
		<edge from-layer="1466" from-port="2" to-layer="1467" to-port="1"/>
		<edge from-layer="1467" from-port="2" to-layer="1469" to-port="0"/>
		<edge from-layer="1468" from-port="0" to-layer="1469" to-port="1"/>
		<edge from-layer="1469" from-port="2" to-layer="1471" to-port="0"/>
		<edge from-layer="1470" from-port="0" to-layer="1471" to-port="1"/>
		<edge from-layer="1471" from-port="2" to-layer="1472" to-port="0"/>
		<edge from-layer="1459" from-port="0" to-layer="1472" to-port="1"/>
		<edge from-layer="1460" from-port="0" to-layer="1472" to-port="2"/>
		<edge from-layer="1461" from-port="0" to-layer="1472" to-port="3"/>
		<edge from-layer="1462" from-port="0" to-layer="1472" to-port="4"/>
		<edge from-layer="1475" from-port="0" to-layer="1476" to-port="0"/>
		<edge from-layer="1476" from-port="1" to-layer="1477" to-port="0"/>
		<edge from-layer="1474" from-port="0" to-layer="1477" to-port="1"/>
		<edge from-layer="1477" from-port="2" to-layer="1478" to-port="0"/>
		<edge from-layer="1473" from-port="0" to-layer="1478" to-port="1"/>
		<edge from-layer="1472" from-port="5" to-layer="1479" to-port="0"/>
		<edge from-layer="1478" from-port="2" to-layer="1479" to-port="1"/>
		<edge from-layer="1479" from-port="2" to-layer="1481" to-port="0"/>
		<edge from-layer="1480" from-port="0" to-layer="1481" to-port="1"/>
		<edge from-layer="1481" from-port="2" to-layer="1483" to-port="0"/>
		<edge from-layer="1482" from-port="0" to-layer="1483" to-port="1"/>
		<edge from-layer="1483" from-port="2" to-layer="1484" to-port="0"/>
		<edge from-layer="1455" from-port="0" to-layer="1484" to-port="1"/>
		<edge from-layer="1456" from-port="0" to-layer="1484" to-port="2"/>
		<edge from-layer="1457" from-port="0" to-layer="1484" to-port="3"/>
		<edge from-layer="1458" from-port="0" to-layer="1484" to-port="4"/>
		<edge from-layer="1486" from-port="0" to-layer="1487" to-port="0"/>
		<edge from-layer="1487" from-port="1" to-layer="1488" to-port="0"/>
		<edge from-layer="1485" from-port="0" to-layer="1488" to-port="1"/>
		<edge from-layer="1484" from-port="5" to-layer="1489" to-port="0"/>
		<edge from-layer="1488" from-port="2" to-layer="1489" to-port="1"/>
		<edge from-layer="1489" from-port="2" to-layer="1491" to-port="0"/>
		<edge from-layer="1490" from-port="0" to-layer="1491" to-port="1"/>
		<edge from-layer="1491" from-port="2" to-layer="1492" to-port="0"/>
		<edge from-layer="1451" from-port="0" to-layer="1492" to-port="1"/>
		<edge from-layer="1452" from-port="0" to-layer="1492" to-port="2"/>
		<edge from-layer="1453" from-port="0" to-layer="1492" to-port="3"/>
		<edge from-layer="1454" from-port="0" to-layer="1492" to-port="4"/>
		<edge from-layer="1450" from-port="5" to-layer="1493" to-port="0"/>
		<edge from-layer="1492" from-port="5" to-layer="1493" to-port="1"/>
		<edge from-layer="1493" from-port="2" to-layer="1495" to-port="0"/>
		<edge from-layer="1494" from-port="0" to-layer="1495" to-port="1"/>
		<edge from-layer="1495" from-port="2" to-layer="1496" to-port="0"/>
		<edge from-layer="1285" from-port="0" to-layer="1496" to-port="1"/>
		<edge from-layer="1286" from-port="0" to-layer="1496" to-port="2"/>
		<edge from-layer="1287" from-port="0" to-layer="1496" to-port="3"/>
		<edge from-layer="1288" from-port="0" to-layer="1496" to-port="4"/>
		<edge from-layer="1510" from-port="0" to-layer="1511" to-port="0"/>
		<edge from-layer="1511" from-port="1" to-layer="1512" to-port="0"/>
		<edge from-layer="1509" from-port="0" to-layer="1512" to-port="1"/>
		<edge from-layer="1496" from-port="5" to-layer="1513" to-port="0"/>
		<edge from-layer="1512" from-port="2" to-layer="1513" to-port="1"/>
		<edge from-layer="1513" from-port="2" to-layer="1515" to-port="0"/>
		<edge from-layer="1514" from-port="0" to-layer="1515" to-port="1"/>
		<edge from-layer="1515" from-port="2" to-layer="1517" to-port="0"/>
		<edge from-layer="1516" from-port="0" to-layer="1517" to-port="1"/>
		<edge from-layer="1517" from-port="2" to-layer="1518" to-port="0"/>
		<edge from-layer="1505" from-port="0" to-layer="1518" to-port="1"/>
		<edge from-layer="1506" from-port="0" to-layer="1518" to-port="2"/>
		<edge from-layer="1507" from-port="0" to-layer="1518" to-port="3"/>
		<edge from-layer="1508" from-port="0" to-layer="1518" to-port="4"/>
		<edge from-layer="1521" from-port="0" to-layer="1522" to-port="0"/>
		<edge from-layer="1522" from-port="1" to-layer="1523" to-port="0"/>
		<edge from-layer="1520" from-port="0" to-layer="1523" to-port="1"/>
		<edge from-layer="1523" from-port="2" to-layer="1524" to-port="0"/>
		<edge from-layer="1519" from-port="0" to-layer="1524" to-port="1"/>
		<edge from-layer="1518" from-port="5" to-layer="1525" to-port="0"/>
		<edge from-layer="1524" from-port="2" to-layer="1525" to-port="1"/>
		<edge from-layer="1525" from-port="2" to-layer="1527" to-port="0"/>
		<edge from-layer="1526" from-port="0" to-layer="1527" to-port="1"/>
		<edge from-layer="1527" from-port="2" to-layer="1529" to-port="0"/>
		<edge from-layer="1528" from-port="0" to-layer="1529" to-port="1"/>
		<edge from-layer="1529" from-port="2" to-layer="1530" to-port="0"/>
		<edge from-layer="1501" from-port="0" to-layer="1530" to-port="1"/>
		<edge from-layer="1502" from-port="0" to-layer="1530" to-port="2"/>
		<edge from-layer="1503" from-port="0" to-layer="1530" to-port="3"/>
		<edge from-layer="1504" from-port="0" to-layer="1530" to-port="4"/>
		<edge from-layer="1532" from-port="0" to-layer="1533" to-port="0"/>
		<edge from-layer="1533" from-port="1" to-layer="1534" to-port="0"/>
		<edge from-layer="1531" from-port="0" to-layer="1534" to-port="1"/>
		<edge from-layer="1530" from-port="5" to-layer="1535" to-port="0"/>
		<edge from-layer="1534" from-port="2" to-layer="1535" to-port="1"/>
		<edge from-layer="1535" from-port="2" to-layer="1537" to-port="0"/>
		<edge from-layer="1536" from-port="0" to-layer="1537" to-port="1"/>
		<edge from-layer="1537" from-port="2" to-layer="1538" to-port="0"/>
		<edge from-layer="1497" from-port="0" to-layer="1538" to-port="1"/>
		<edge from-layer="1498" from-port="0" to-layer="1538" to-port="2"/>
		<edge from-layer="1499" from-port="0" to-layer="1538" to-port="3"/>
		<edge from-layer="1500" from-port="0" to-layer="1538" to-port="4"/>
		<edge from-layer="1496" from-port="5" to-layer="1539" to-port="0"/>
		<edge from-layer="1538" from-port="5" to-layer="1539" to-port="1"/>
		<edge from-layer="1539" from-port="2" to-layer="1541" to-port="0"/>
		<edge from-layer="1540" from-port="0" to-layer="1541" to-port="1"/>
		<edge from-layer="1541" from-port="2" to-layer="1542" to-port="0"/>
		<edge from-layer="1281" from-port="0" to-layer="1542" to-port="1"/>
		<edge from-layer="1282" from-port="0" to-layer="1542" to-port="2"/>
		<edge from-layer="1283" from-port="0" to-layer="1542" to-port="3"/>
		<edge from-layer="1284" from-port="0" to-layer="1542" to-port="4"/>
		<edge from-layer="1556" from-port="0" to-layer="1557" to-port="0"/>
		<edge from-layer="1557" from-port="1" to-layer="1558" to-port="0"/>
		<edge from-layer="1555" from-port="0" to-layer="1558" to-port="1"/>
		<edge from-layer="1542" from-port="5" to-layer="1559" to-port="0"/>
		<edge from-layer="1558" from-port="2" to-layer="1559" to-port="1"/>
		<edge from-layer="1559" from-port="2" to-layer="1561" to-port="0"/>
		<edge from-layer="1560" from-port="0" to-layer="1561" to-port="1"/>
		<edge from-layer="1561" from-port="2" to-layer="1563" to-port="0"/>
		<edge from-layer="1562" from-port="0" to-layer="1563" to-port="1"/>
		<edge from-layer="1563" from-port="2" to-layer="1564" to-port="0"/>
		<edge from-layer="1551" from-port="0" to-layer="1564" to-port="1"/>
		<edge from-layer="1552" from-port="0" to-layer="1564" to-port="2"/>
		<edge from-layer="1553" from-port="0" to-layer="1564" to-port="3"/>
		<edge from-layer="1554" from-port="0" to-layer="1564" to-port="4"/>
		<edge from-layer="1567" from-port="0" to-layer="1568" to-port="0"/>
		<edge from-layer="1568" from-port="1" to-layer="1569" to-port="0"/>
		<edge from-layer="1566" from-port="0" to-layer="1569" to-port="1"/>
		<edge from-layer="1569" from-port="2" to-layer="1570" to-port="0"/>
		<edge from-layer="1565" from-port="0" to-layer="1570" to-port="1"/>
		<edge from-layer="1564" from-port="5" to-layer="1571" to-port="0"/>
		<edge from-layer="1570" from-port="2" to-layer="1571" to-port="1"/>
		<edge from-layer="1571" from-port="2" to-layer="1573" to-port="0"/>
		<edge from-layer="1572" from-port="0" to-layer="1573" to-port="1"/>
		<edge from-layer="1573" from-port="2" to-layer="1575" to-port="0"/>
		<edge from-layer="1574" from-port="0" to-layer="1575" to-port="1"/>
		<edge from-layer="1575" from-port="2" to-layer="1576" to-port="0"/>
		<edge from-layer="1547" from-port="0" to-layer="1576" to-port="1"/>
		<edge from-layer="1548" from-port="0" to-layer="1576" to-port="2"/>
		<edge from-layer="1549" from-port="0" to-layer="1576" to-port="3"/>
		<edge from-layer="1550" from-port="0" to-layer="1576" to-port="4"/>
		<edge from-layer="1578" from-port="0" to-layer="1579" to-port="0"/>
		<edge from-layer="1579" from-port="1" to-layer="1580" to-port="0"/>
		<edge from-layer="1577" from-port="0" to-layer="1580" to-port="1"/>
		<edge from-layer="1576" from-port="5" to-layer="1581" to-port="0"/>
		<edge from-layer="1580" from-port="2" to-layer="1581" to-port="1"/>
		<edge from-layer="1581" from-port="2" to-layer="1583" to-port="0"/>
		<edge from-layer="1582" from-port="0" to-layer="1583" to-port="1"/>
		<edge from-layer="1583" from-port="2" to-layer="1584" to-port="0"/>
		<edge from-layer="1543" from-port="0" to-layer="1584" to-port="1"/>
		<edge from-layer="1544" from-port="0" to-layer="1584" to-port="2"/>
		<edge from-layer="1545" from-port="0" to-layer="1584" to-port="3"/>
		<edge from-layer="1546" from-port="0" to-layer="1584" to-port="4"/>
		<edge from-layer="1542" from-port="5" to-layer="1585" to-port="0"/>
		<edge from-layer="1584" from-port="5" to-layer="1585" to-port="1"/>
		<edge from-layer="1585" from-port="2" to-layer="1587" to-port="0"/>
		<edge from-layer="1586" from-port="0" to-layer="1587" to-port="1"/>
		<edge from-layer="1587" from-port="2" to-layer="1588" to-port="0"/>
		<edge from-layer="1277" from-port="0" to-layer="1588" to-port="1"/>
		<edge from-layer="1278" from-port="0" to-layer="1588" to-port="2"/>
		<edge from-layer="1279" from-port="0" to-layer="1588" to-port="3"/>
		<edge from-layer="1280" from-port="0" to-layer="1588" to-port="4"/>
		<edge from-layer="1602" from-port="0" to-layer="1603" to-port="0"/>
		<edge from-layer="1603" from-port="1" to-layer="1604" to-port="0"/>
		<edge from-layer="1601" from-port="0" to-layer="1604" to-port="1"/>
		<edge from-layer="1588" from-port="5" to-layer="1605" to-port="0"/>
		<edge from-layer="1604" from-port="2" to-layer="1605" to-port="1"/>
		<edge from-layer="1605" from-port="2" to-layer="1607" to-port="0"/>
		<edge from-layer="1606" from-port="0" to-layer="1607" to-port="1"/>
		<edge from-layer="1607" from-port="2" to-layer="1609" to-port="0"/>
		<edge from-layer="1608" from-port="0" to-layer="1609" to-port="1"/>
		<edge from-layer="1609" from-port="2" to-layer="1610" to-port="0"/>
		<edge from-layer="1597" from-port="0" to-layer="1610" to-port="1"/>
		<edge from-layer="1598" from-port="0" to-layer="1610" to-port="2"/>
		<edge from-layer="1599" from-port="0" to-layer="1610" to-port="3"/>
		<edge from-layer="1600" from-port="0" to-layer="1610" to-port="4"/>
		<edge from-layer="1613" from-port="0" to-layer="1614" to-port="0"/>
		<edge from-layer="1614" from-port="1" to-layer="1615" to-port="0"/>
		<edge from-layer="1612" from-port="0" to-layer="1615" to-port="1"/>
		<edge from-layer="1615" from-port="2" to-layer="1616" to-port="0"/>
		<edge from-layer="1611" from-port="0" to-layer="1616" to-port="1"/>
		<edge from-layer="1610" from-port="5" to-layer="1617" to-port="0"/>
		<edge from-layer="1616" from-port="2" to-layer="1617" to-port="1"/>
		<edge from-layer="1617" from-port="2" to-layer="1619" to-port="0"/>
		<edge from-layer="1618" from-port="0" to-layer="1619" to-port="1"/>
		<edge from-layer="1619" from-port="2" to-layer="1621" to-port="0"/>
		<edge from-layer="1620" from-port="0" to-layer="1621" to-port="1"/>
		<edge from-layer="1621" from-port="2" to-layer="1622" to-port="0"/>
		<edge from-layer="1593" from-port="0" to-layer="1622" to-port="1"/>
		<edge from-layer="1594" from-port="0" to-layer="1622" to-port="2"/>
		<edge from-layer="1595" from-port="0" to-layer="1622" to-port="3"/>
		<edge from-layer="1596" from-port="0" to-layer="1622" to-port="4"/>
		<edge from-layer="1624" from-port="0" to-layer="1625" to-port="0"/>
		<edge from-layer="1625" from-port="1" to-layer="1626" to-port="0"/>
		<edge from-layer="1623" from-port="0" to-layer="1626" to-port="1"/>
		<edge from-layer="1622" from-port="5" to-layer="1627" to-port="0"/>
		<edge from-layer="1626" from-port="2" to-layer="1627" to-port="1"/>
		<edge from-layer="1627" from-port="2" to-layer="1629" to-port="0"/>
		<edge from-layer="1628" from-port="0" to-layer="1629" to-port="1"/>
		<edge from-layer="1629" from-port="2" to-layer="1630" to-port="0"/>
		<edge from-layer="1589" from-port="0" to-layer="1630" to-port="1"/>
		<edge from-layer="1590" from-port="0" to-layer="1630" to-port="2"/>
		<edge from-layer="1591" from-port="0" to-layer="1630" to-port="3"/>
		<edge from-layer="1592" from-port="0" to-layer="1630" to-port="4"/>
		<edge from-layer="1588" from-port="5" to-layer="1631" to-port="0"/>
		<edge from-layer="1630" from-port="5" to-layer="1631" to-port="1"/>
		<edge from-layer="1631" from-port="2" to-layer="1633" to-port="0"/>
		<edge from-layer="1632" from-port="0" to-layer="1633" to-port="1"/>
		<edge from-layer="1633" from-port="2" to-layer="1634" to-port="0"/>
		<edge from-layer="1273" from-port="0" to-layer="1634" to-port="1"/>
		<edge from-layer="1274" from-port="0" to-layer="1634" to-port="2"/>
		<edge from-layer="1275" from-port="0" to-layer="1634" to-port="3"/>
		<edge from-layer="1276" from-port="0" to-layer="1634" to-port="4"/>
		<edge from-layer="1648" from-port="0" to-layer="1649" to-port="0"/>
		<edge from-layer="1649" from-port="1" to-layer="1650" to-port="0"/>
		<edge from-layer="1647" from-port="0" to-layer="1650" to-port="1"/>
		<edge from-layer="1634" from-port="5" to-layer="1651" to-port="0"/>
		<edge from-layer="1650" from-port="2" to-layer="1651" to-port="1"/>
		<edge from-layer="1651" from-port="2" to-layer="1653" to-port="0"/>
		<edge from-layer="1652" from-port="0" to-layer="1653" to-port="1"/>
		<edge from-layer="1653" from-port="2" to-layer="1655" to-port="0"/>
		<edge from-layer="1654" from-port="0" to-layer="1655" to-port="1"/>
		<edge from-layer="1655" from-port="2" to-layer="1656" to-port="0"/>
		<edge from-layer="1643" from-port="0" to-layer="1656" to-port="1"/>
		<edge from-layer="1644" from-port="0" to-layer="1656" to-port="2"/>
		<edge from-layer="1645" from-port="0" to-layer="1656" to-port="3"/>
		<edge from-layer="1646" from-port="0" to-layer="1656" to-port="4"/>
		<edge from-layer="1659" from-port="0" to-layer="1660" to-port="0"/>
		<edge from-layer="1660" from-port="1" to-layer="1661" to-port="0"/>
		<edge from-layer="1658" from-port="0" to-layer="1661" to-port="1"/>
		<edge from-layer="1661" from-port="2" to-layer="1662" to-port="0"/>
		<edge from-layer="1657" from-port="0" to-layer="1662" to-port="1"/>
		<edge from-layer="1656" from-port="5" to-layer="1663" to-port="0"/>
		<edge from-layer="1662" from-port="2" to-layer="1663" to-port="1"/>
		<edge from-layer="1663" from-port="2" to-layer="1665" to-port="0"/>
		<edge from-layer="1664" from-port="0" to-layer="1665" to-port="1"/>
		<edge from-layer="1665" from-port="2" to-layer="1667" to-port="0"/>
		<edge from-layer="1666" from-port="0" to-layer="1667" to-port="1"/>
		<edge from-layer="1667" from-port="2" to-layer="1668" to-port="0"/>
		<edge from-layer="1639" from-port="0" to-layer="1668" to-port="1"/>
		<edge from-layer="1640" from-port="0" to-layer="1668" to-port="2"/>
		<edge from-layer="1641" from-port="0" to-layer="1668" to-port="3"/>
		<edge from-layer="1642" from-port="0" to-layer="1668" to-port="4"/>
		<edge from-layer="1670" from-port="0" to-layer="1671" to-port="0"/>
		<edge from-layer="1671" from-port="1" to-layer="1672" to-port="0"/>
		<edge from-layer="1669" from-port="0" to-layer="1672" to-port="1"/>
		<edge from-layer="1668" from-port="5" to-layer="1673" to-port="0"/>
		<edge from-layer="1672" from-port="2" to-layer="1673" to-port="1"/>
		<edge from-layer="1673" from-port="2" to-layer="1675" to-port="0"/>
		<edge from-layer="1674" from-port="0" to-layer="1675" to-port="1"/>
		<edge from-layer="1675" from-port="2" to-layer="1676" to-port="0"/>
		<edge from-layer="1635" from-port="0" to-layer="1676" to-port="1"/>
		<edge from-layer="1636" from-port="0" to-layer="1676" to-port="2"/>
		<edge from-layer="1637" from-port="0" to-layer="1676" to-port="3"/>
		<edge from-layer="1638" from-port="0" to-layer="1676" to-port="4"/>
		<edge from-layer="1634" from-port="5" to-layer="1677" to-port="0"/>
		<edge from-layer="1676" from-port="5" to-layer="1677" to-port="1"/>
		<edge from-layer="1677" from-port="2" to-layer="1679" to-port="0"/>
		<edge from-layer="1678" from-port="0" to-layer="1679" to-port="1"/>
		<edge from-layer="1679" from-port="2" to-layer="1680" to-port="0"/>
		<edge from-layer="1269" from-port="0" to-layer="1680" to-port="1"/>
		<edge from-layer="1270" from-port="0" to-layer="1680" to-port="2"/>
		<edge from-layer="1271" from-port="0" to-layer="1680" to-port="3"/>
		<edge from-layer="1272" from-port="0" to-layer="1680" to-port="4"/>
		<edge from-layer="1694" from-port="0" to-layer="1695" to-port="0"/>
		<edge from-layer="1695" from-port="1" to-layer="1696" to-port="0"/>
		<edge from-layer="1693" from-port="0" to-layer="1696" to-port="1"/>
		<edge from-layer="1680" from-port="5" to-layer="1697" to-port="0"/>
		<edge from-layer="1696" from-port="2" to-layer="1697" to-port="1"/>
		<edge from-layer="1697" from-port="2" to-layer="1699" to-port="0"/>
		<edge from-layer="1698" from-port="0" to-layer="1699" to-port="1"/>
		<edge from-layer="1699" from-port="2" to-layer="1701" to-port="0"/>
		<edge from-layer="1700" from-port="0" to-layer="1701" to-port="1"/>
		<edge from-layer="1701" from-port="2" to-layer="1702" to-port="0"/>
		<edge from-layer="1689" from-port="0" to-layer="1702" to-port="1"/>
		<edge from-layer="1690" from-port="0" to-layer="1702" to-port="2"/>
		<edge from-layer="1691" from-port="0" to-layer="1702" to-port="3"/>
		<edge from-layer="1692" from-port="0" to-layer="1702" to-port="4"/>
		<edge from-layer="1705" from-port="0" to-layer="1706" to-port="0"/>
		<edge from-layer="1706" from-port="1" to-layer="1707" to-port="0"/>
		<edge from-layer="1704" from-port="0" to-layer="1707" to-port="1"/>
		<edge from-layer="1707" from-port="2" to-layer="1708" to-port="0"/>
		<edge from-layer="1703" from-port="0" to-layer="1708" to-port="1"/>
		<edge from-layer="1702" from-port="5" to-layer="1709" to-port="0"/>
		<edge from-layer="1708" from-port="2" to-layer="1709" to-port="1"/>
		<edge from-layer="1709" from-port="2" to-layer="1711" to-port="0"/>
		<edge from-layer="1710" from-port="0" to-layer="1711" to-port="1"/>
		<edge from-layer="1711" from-port="2" to-layer="1713" to-port="0"/>
		<edge from-layer="1712" from-port="0" to-layer="1713" to-port="1"/>
		<edge from-layer="1713" from-port="2" to-layer="1714" to-port="0"/>
		<edge from-layer="1685" from-port="0" to-layer="1714" to-port="1"/>
		<edge from-layer="1686" from-port="0" to-layer="1714" to-port="2"/>
		<edge from-layer="1687" from-port="0" to-layer="1714" to-port="3"/>
		<edge from-layer="1688" from-port="0" to-layer="1714" to-port="4"/>
		<edge from-layer="1716" from-port="0" to-layer="1717" to-port="0"/>
		<edge from-layer="1717" from-port="1" to-layer="1718" to-port="0"/>
		<edge from-layer="1715" from-port="0" to-layer="1718" to-port="1"/>
		<edge from-layer="1714" from-port="5" to-layer="1719" to-port="0"/>
		<edge from-layer="1718" from-port="2" to-layer="1719" to-port="1"/>
		<edge from-layer="1719" from-port="2" to-layer="1721" to-port="0"/>
		<edge from-layer="1720" from-port="0" to-layer="1721" to-port="1"/>
		<edge from-layer="1721" from-port="2" to-layer="1722" to-port="0"/>
		<edge from-layer="1681" from-port="0" to-layer="1722" to-port="1"/>
		<edge from-layer="1682" from-port="0" to-layer="1722" to-port="2"/>
		<edge from-layer="1683" from-port="0" to-layer="1722" to-port="3"/>
		<edge from-layer="1684" from-port="0" to-layer="1722" to-port="4"/>
		<edge from-layer="1680" from-port="5" to-layer="1723" to-port="0"/>
		<edge from-layer="1722" from-port="5" to-layer="1723" to-port="1"/>
		<edge from-layer="1723" from-port="2" to-layer="1725" to-port="0"/>
		<edge from-layer="1724" from-port="0" to-layer="1725" to-port="1"/>
		<edge from-layer="1725" from-port="2" to-layer="1726" to-port="0"/>
		<edge from-layer="1265" from-port="0" to-layer="1726" to-port="1"/>
		<edge from-layer="1266" from-port="0" to-layer="1726" to-port="2"/>
		<edge from-layer="1267" from-port="0" to-layer="1726" to-port="3"/>
		<edge from-layer="1268" from-port="0" to-layer="1726" to-port="4"/>
		<edge from-layer="1740" from-port="0" to-layer="1741" to-port="0"/>
		<edge from-layer="1741" from-port="1" to-layer="1742" to-port="0"/>
		<edge from-layer="1739" from-port="0" to-layer="1742" to-port="1"/>
		<edge from-layer="1726" from-port="5" to-layer="1743" to-port="0"/>
		<edge from-layer="1742" from-port="2" to-layer="1743" to-port="1"/>
		<edge from-layer="1743" from-port="2" to-layer="1745" to-port="0"/>
		<edge from-layer="1744" from-port="0" to-layer="1745" to-port="1"/>
		<edge from-layer="1745" from-port="2" to-layer="1747" to-port="0"/>
		<edge from-layer="1746" from-port="0" to-layer="1747" to-port="1"/>
		<edge from-layer="1747" from-port="2" to-layer="1748" to-port="0"/>
		<edge from-layer="1735" from-port="0" to-layer="1748" to-port="1"/>
		<edge from-layer="1736" from-port="0" to-layer="1748" to-port="2"/>
		<edge from-layer="1737" from-port="0" to-layer="1748" to-port="3"/>
		<edge from-layer="1738" from-port="0" to-layer="1748" to-port="4"/>
		<edge from-layer="1751" from-port="0" to-layer="1752" to-port="0"/>
		<edge from-layer="1752" from-port="1" to-layer="1753" to-port="0"/>
		<edge from-layer="1750" from-port="0" to-layer="1753" to-port="1"/>
		<edge from-layer="1753" from-port="2" to-layer="1754" to-port="0"/>
		<edge from-layer="1749" from-port="0" to-layer="1754" to-port="1"/>
		<edge from-layer="1748" from-port="5" to-layer="1755" to-port="0"/>
		<edge from-layer="1754" from-port="2" to-layer="1755" to-port="1"/>
		<edge from-layer="1755" from-port="2" to-layer="1757" to-port="0"/>
		<edge from-layer="1756" from-port="0" to-layer="1757" to-port="1"/>
		<edge from-layer="1757" from-port="2" to-layer="1759" to-port="0"/>
		<edge from-layer="1758" from-port="0" to-layer="1759" to-port="1"/>
		<edge from-layer="1759" from-port="2" to-layer="1760" to-port="0"/>
		<edge from-layer="1731" from-port="0" to-layer="1760" to-port="1"/>
		<edge from-layer="1732" from-port="0" to-layer="1760" to-port="2"/>
		<edge from-layer="1733" from-port="0" to-layer="1760" to-port="3"/>
		<edge from-layer="1734" from-port="0" to-layer="1760" to-port="4"/>
		<edge from-layer="1762" from-port="0" to-layer="1763" to-port="0"/>
		<edge from-layer="1763" from-port="1" to-layer="1764" to-port="0"/>
		<edge from-layer="1761" from-port="0" to-layer="1764" to-port="1"/>
		<edge from-layer="1760" from-port="5" to-layer="1765" to-port="0"/>
		<edge from-layer="1764" from-port="2" to-layer="1765" to-port="1"/>
		<edge from-layer="1765" from-port="2" to-layer="1767" to-port="0"/>
		<edge from-layer="1766" from-port="0" to-layer="1767" to-port="1"/>
		<edge from-layer="1767" from-port="2" to-layer="1768" to-port="0"/>
		<edge from-layer="1727" from-port="0" to-layer="1768" to-port="1"/>
		<edge from-layer="1728" from-port="0" to-layer="1768" to-port="2"/>
		<edge from-layer="1729" from-port="0" to-layer="1768" to-port="3"/>
		<edge from-layer="1730" from-port="0" to-layer="1768" to-port="4"/>
		<edge from-layer="1726" from-port="5" to-layer="1769" to-port="0"/>
		<edge from-layer="1768" from-port="5" to-layer="1769" to-port="1"/>
		<edge from-layer="1769" from-port="2" to-layer="1771" to-port="0"/>
		<edge from-layer="1770" from-port="0" to-layer="1771" to-port="1"/>
		<edge from-layer="1771" from-port="2" to-layer="1772" to-port="0"/>
		<edge from-layer="1261" from-port="0" to-layer="1772" to-port="1"/>
		<edge from-layer="1262" from-port="0" to-layer="1772" to-port="2"/>
		<edge from-layer="1263" from-port="0" to-layer="1772" to-port="3"/>
		<edge from-layer="1264" from-port="0" to-layer="1772" to-port="4"/>
		<edge from-layer="1786" from-port="0" to-layer="1787" to-port="0"/>
		<edge from-layer="1787" from-port="1" to-layer="1788" to-port="0"/>
		<edge from-layer="1785" from-port="0" to-layer="1788" to-port="1"/>
		<edge from-layer="1772" from-port="5" to-layer="1789" to-port="0"/>
		<edge from-layer="1788" from-port="2" to-layer="1789" to-port="1"/>
		<edge from-layer="1789" from-port="2" to-layer="1791" to-port="0"/>
		<edge from-layer="1790" from-port="0" to-layer="1791" to-port="1"/>
		<edge from-layer="1791" from-port="2" to-layer="1793" to-port="0"/>
		<edge from-layer="1792" from-port="0" to-layer="1793" to-port="1"/>
		<edge from-layer="1793" from-port="2" to-layer="1794" to-port="0"/>
		<edge from-layer="1781" from-port="0" to-layer="1794" to-port="1"/>
		<edge from-layer="1782" from-port="0" to-layer="1794" to-port="2"/>
		<edge from-layer="1783" from-port="0" to-layer="1794" to-port="3"/>
		<edge from-layer="1784" from-port="0" to-layer="1794" to-port="4"/>
		<edge from-layer="1797" from-port="0" to-layer="1798" to-port="0"/>
		<edge from-layer="1798" from-port="1" to-layer="1799" to-port="0"/>
		<edge from-layer="1796" from-port="0" to-layer="1799" to-port="1"/>
		<edge from-layer="1799" from-port="2" to-layer="1800" to-port="0"/>
		<edge from-layer="1795" from-port="0" to-layer="1800" to-port="1"/>
		<edge from-layer="1794" from-port="5" to-layer="1801" to-port="0"/>
		<edge from-layer="1800" from-port="2" to-layer="1801" to-port="1"/>
		<edge from-layer="1801" from-port="2" to-layer="1803" to-port="0"/>
		<edge from-layer="1802" from-port="0" to-layer="1803" to-port="1"/>
		<edge from-layer="1803" from-port="2" to-layer="1805" to-port="0"/>
		<edge from-layer="1804" from-port="0" to-layer="1805" to-port="1"/>
		<edge from-layer="1805" from-port="2" to-layer="1806" to-port="0"/>
		<edge from-layer="1777" from-port="0" to-layer="1806" to-port="1"/>
		<edge from-layer="1778" from-port="0" to-layer="1806" to-port="2"/>
		<edge from-layer="1779" from-port="0" to-layer="1806" to-port="3"/>
		<edge from-layer="1780" from-port="0" to-layer="1806" to-port="4"/>
		<edge from-layer="1808" from-port="0" to-layer="1809" to-port="0"/>
		<edge from-layer="1809" from-port="1" to-layer="1810" to-port="0"/>
		<edge from-layer="1807" from-port="0" to-layer="1810" to-port="1"/>
		<edge from-layer="1806" from-port="5" to-layer="1811" to-port="0"/>
		<edge from-layer="1810" from-port="2" to-layer="1811" to-port="1"/>
		<edge from-layer="1811" from-port="2" to-layer="1813" to-port="0"/>
		<edge from-layer="1812" from-port="0" to-layer="1813" to-port="1"/>
		<edge from-layer="1813" from-port="2" to-layer="1814" to-port="0"/>
		<edge from-layer="1773" from-port="0" to-layer="1814" to-port="1"/>
		<edge from-layer="1774" from-port="0" to-layer="1814" to-port="2"/>
		<edge from-layer="1775" from-port="0" to-layer="1814" to-port="3"/>
		<edge from-layer="1776" from-port="0" to-layer="1814" to-port="4"/>
		<edge from-layer="1772" from-port="5" to-layer="1815" to-port="0"/>
		<edge from-layer="1814" from-port="5" to-layer="1815" to-port="1"/>
		<edge from-layer="1815" from-port="2" to-layer="1817" to-port="0"/>
		<edge from-layer="1816" from-port="0" to-layer="1817" to-port="1"/>
		<edge from-layer="1817" from-port="2" to-layer="1818" to-port="0"/>
		<edge from-layer="1257" from-port="0" to-layer="1818" to-port="1"/>
		<edge from-layer="1258" from-port="0" to-layer="1818" to-port="2"/>
		<edge from-layer="1259" from-port="0" to-layer="1818" to-port="3"/>
		<edge from-layer="1260" from-port="0" to-layer="1818" to-port="4"/>
		<edge from-layer="1832" from-port="0" to-layer="1833" to-port="0"/>
		<edge from-layer="1833" from-port="1" to-layer="1834" to-port="0"/>
		<edge from-layer="1831" from-port="0" to-layer="1834" to-port="1"/>
		<edge from-layer="1818" from-port="5" to-layer="1835" to-port="0"/>
		<edge from-layer="1834" from-port="2" to-layer="1835" to-port="1"/>
		<edge from-layer="1835" from-port="2" to-layer="1837" to-port="0"/>
		<edge from-layer="1836" from-port="0" to-layer="1837" to-port="1"/>
		<edge from-layer="1837" from-port="2" to-layer="1839" to-port="0"/>
		<edge from-layer="1838" from-port="0" to-layer="1839" to-port="1"/>
		<edge from-layer="1839" from-port="2" to-layer="1840" to-port="0"/>
		<edge from-layer="1827" from-port="0" to-layer="1840" to-port="1"/>
		<edge from-layer="1828" from-port="0" to-layer="1840" to-port="2"/>
		<edge from-layer="1829" from-port="0" to-layer="1840" to-port="3"/>
		<edge from-layer="1830" from-port="0" to-layer="1840" to-port="4"/>
		<edge from-layer="1843" from-port="0" to-layer="1844" to-port="0"/>
		<edge from-layer="1844" from-port="1" to-layer="1845" to-port="0"/>
		<edge from-layer="1842" from-port="0" to-layer="1845" to-port="1"/>
		<edge from-layer="1845" from-port="2" to-layer="1846" to-port="0"/>
		<edge from-layer="1841" from-port="0" to-layer="1846" to-port="1"/>
		<edge from-layer="1840" from-port="5" to-layer="1847" to-port="0"/>
		<edge from-layer="1846" from-port="2" to-layer="1847" to-port="1"/>
		<edge from-layer="1847" from-port="2" to-layer="1849" to-port="0"/>
		<edge from-layer="1848" from-port="0" to-layer="1849" to-port="1"/>
		<edge from-layer="1849" from-port="2" to-layer="1851" to-port="0"/>
		<edge from-layer="1850" from-port="0" to-layer="1851" to-port="1"/>
		<edge from-layer="1851" from-port="2" to-layer="1852" to-port="0"/>
		<edge from-layer="1823" from-port="0" to-layer="1852" to-port="1"/>
		<edge from-layer="1824" from-port="0" to-layer="1852" to-port="2"/>
		<edge from-layer="1825" from-port="0" to-layer="1852" to-port="3"/>
		<edge from-layer="1826" from-port="0" to-layer="1852" to-port="4"/>
		<edge from-layer="1854" from-port="0" to-layer="1855" to-port="0"/>
		<edge from-layer="1855" from-port="1" to-layer="1856" to-port="0"/>
		<edge from-layer="1853" from-port="0" to-layer="1856" to-port="1"/>
		<edge from-layer="1852" from-port="5" to-layer="1857" to-port="0"/>
		<edge from-layer="1856" from-port="2" to-layer="1857" to-port="1"/>
		<edge from-layer="1857" from-port="2" to-layer="1859" to-port="0"/>
		<edge from-layer="1858" from-port="0" to-layer="1859" to-port="1"/>
		<edge from-layer="1859" from-port="2" to-layer="1860" to-port="0"/>
		<edge from-layer="1819" from-port="0" to-layer="1860" to-port="1"/>
		<edge from-layer="1820" from-port="0" to-layer="1860" to-port="2"/>
		<edge from-layer="1821" from-port="0" to-layer="1860" to-port="3"/>
		<edge from-layer="1822" from-port="0" to-layer="1860" to-port="4"/>
		<edge from-layer="1818" from-port="5" to-layer="1861" to-port="0"/>
		<edge from-layer="1860" from-port="5" to-layer="1861" to-port="1"/>
		<edge from-layer="1861" from-port="2" to-layer="1863" to-port="0"/>
		<edge from-layer="1862" from-port="0" to-layer="1863" to-port="1"/>
		<edge from-layer="1863" from-port="2" to-layer="1864" to-port="0"/>
		<edge from-layer="1253" from-port="0" to-layer="1864" to-port="1"/>
		<edge from-layer="1254" from-port="0" to-layer="1864" to-port="2"/>
		<edge from-layer="1255" from-port="0" to-layer="1864" to-port="3"/>
		<edge from-layer="1256" from-port="0" to-layer="1864" to-port="4"/>
		<edge from-layer="1866" from-port="0" to-layer="1867" to-port="0"/>
		<edge from-layer="1867" from-port="1" to-layer="1868" to-port="0"/>
		<edge from-layer="1865" from-port="0" to-layer="1868" to-port="1"/>
		<edge from-layer="1864" from-port="5" to-layer="1869" to-port="0"/>
		<edge from-layer="1868" from-port="2" to-layer="1869" to-port="1"/>
		<edge from-layer="1869" from-port="2" to-layer="1871" to-port="0"/>
		<edge from-layer="1870" from-port="0" to-layer="1871" to-port="1"/>
		<edge from-layer="1871" from-port="2" to-layer="1873" to-port="0"/>
		<edge from-layer="1872" from-port="0" to-layer="1873" to-port="1"/>
		<edge from-layer="1873" from-port="2" to-layer="1875" to-port="0"/>
		<edge from-layer="1874" from-port="0" to-layer="1875" to-port="1"/>
		<edge from-layer="1877" from-port="0" to-layer="1878" to-port="0"/>
		<edge from-layer="1878" from-port="1" to-layer="1879" to-port="0"/>
		<edge from-layer="1876" from-port="0" to-layer="1879" to-port="1"/>
		<edge from-layer="1864" from-port="5" to-layer="1880" to-port="0"/>
		<edge from-layer="1879" from-port="2" to-layer="1880" to-port="1"/>
		<edge from-layer="1880" from-port="2" to-layer="1882" to-port="0"/>
		<edge from-layer="1881" from-port="0" to-layer="1882" to-port="1"/>
		<edge from-layer="1882" from-port="2" to-layer="1884" to-port="0"/>
		<edge from-layer="1883" from-port="0" to-layer="1884" to-port="1"/>
		<edge from-layer="1884" from-port="2" to-layer="1886" to-port="0"/>
		<edge from-layer="1885" from-port="0" to-layer="1886" to-port="1"/>
		<edge from-layer="1886" from-port="2" to-layer="1888" to-port="0"/>
		<edge from-layer="1887" from-port="0" to-layer="1888" to-port="1"/>
		<edge from-layer="1888" from-port="2" to-layer="1889" to-port="0"/>
		<edge from-layer="1889" from-port="1" to-layer="1891" to-port="0"/>
		<edge from-layer="1890" from-port="0" to-layer="1891" to-port="1"/>
		<edge from-layer="1863" from-port="2" to-layer="1892" to-port="0"/>
		<edge from-layer="1892" from-port="1" to-layer="1896" to-port="0"/>
		<edge from-layer="1893" from-port="0" to-layer="1896" to-port="1"/>
		<edge from-layer="1894" from-port="0" to-layer="1896" to-port="2"/>
		<edge from-layer="1895" from-port="0" to-layer="1896" to-port="3"/>
		<edge from-layer="24" from-port="0" to-layer="1897" to-port="0"/>
		<edge from-layer="1897" from-port="1" to-layer="1901" to-port="0"/>
		<edge from-layer="1898" from-port="0" to-layer="1901" to-port="1"/>
		<edge from-layer="1899" from-port="0" to-layer="1901" to-port="2"/>
		<edge from-layer="1900" from-port="0" to-layer="1901" to-port="3"/>
		<edge from-layer="1896" from-port="4" to-layer="1902" to-port="0"/>
		<edge from-layer="1901" from-port="4" to-layer="1902" to-port="1"/>
		<edge from-layer="1902" from-port="2" to-layer="1904" to-port="0"/>
		<edge from-layer="1903" from-port="0" to-layer="1904" to-port="1"/>
		<edge from-layer="1875" from-port="2" to-layer="1905" to-port="0"/>
		<edge from-layer="1891" from-port="2" to-layer="1905" to-port="1"/>
		<edge from-layer="1904" from-port="2" to-layer="1905" to-port="2"/>
		<edge from-layer="1905" from-port="3" to-layer="1906" to-port="0"/>
	</edges>
	<rt_info>
		<MO_version value="custom_HEAD_3b86f12c37fa7b35388be509ccabf6c7423268b7"/>
		<Runtime_version value="2022.3.0-8987-3b86f12c37f-HEAD"/>
		<conversion_parameters>
			<caffe_parser_path value="DIR"/>
			<data_type value="FP32"/>
			<framework value="caffe"/>
			<input value="data"/>
			<input_model value="DIR/rmnet_lrelu_pd_ssd.caffemodel"/>
			<input_proto value="DIR/rmnet_lrelu_pd_ssd.prototxt"/>
			<input_shape value="[1,3,320,544]"/>
			<layout value="data(nchw)"/>
			<model_name value="person-detection-retail-0013"/>
			<output value="detection_out"/>
			<output_dir value="DIR"/>
		</conversion_parameters>
		<legacy_frontend value="True"/>
		<quantization_parameters/>
	</rt_info>
	<quantization_parameters>
		<config/>
		<version value="{}"/>
		<cli_params value="{}"/>
	</quantization_parameters>
</net>
